Tetris/tetris_policy.pth (torch, 520413 bytes, 6 tensors)

net.0.weight f4 [256, 207]
-0.04984001 0.04117979 -0.061467223 0.013768174 0.02575697 -0.022045646 0.017919801 -0.024114992
0.021612622 0.017693095 0.008209772 0.05952572 0.030689389 0.04315547 -0.031472035 0.0045295954
-0.042532906 -0.043385718 0.047213316 0.008769251 -0.009552937 -0.010193355 -0.05715673 -0.036673382
0.029422559 0.032785498 0.023473412 -0.04552535 -0.030063175 -0.06819523 -0.01273584 0.026565427
-0.03530175 -0.055506475 0.02233947 -0.008965321 -0.026873525 -0.064768806 -0.09198676 -0.029774355
0.0528081 -0.05158442 -0.055635482 0.011075472 0.0198939 -0.022769302 -0.032351397 -0.085266806
-0.06330709 -0.055132404 -0.06538235 -0.082831115 -0.052910816 0.02261691 0.009692937 -0.07308223
-0.069147415 -0.031309877 0.043346636 0.041669328 0.03317765 -0.046967767 0.05438808 -0.06462738
0.048912488 0.04430482 -0.074948326 -0.016526178 0.046087798 0.050562423 -0.016810883 -0.06064308
-0.0793227 -0.052325524 0.013903421 -0.055882003 0.028558156 0.1587488 0.060067378 -0.023404136
0.0668819 -0.0151940575 0.012295708 -0.061421495 0.0049660513 -0.030277783 0.0336 0.0113694845
-0.03836048 -0.11272903 0.0390924 0.01218903 -0.085721634 -0.0879051 -0.0071712155 0.00068981183
0.0116499625 -0.05865385 0.039411087 -0.00362671 -0.018112347 -0.03250883 -0.03716793 -0.076715216
0.020797022 -0.01455693 0.0109092 -0.078938566 0.031941224 0.022610033 0.008649804 -0.04355574
-0.058041327 -0.020363864 -0.061620507 -0.08370715 0.05382011 0.018154504 0.06400608 0.036841113
0.06626386 -0.027948294 -0.010198097 0.026202373 -0.075534105 -0.03812765 -0.0223091 -0.035317518
-0.014405762 -0.045630377 -0.019855691 -0.030116823 0.04913654 -0.018213969 -0.029430168 0.014553892
0.009309139 0.081480324 -0.010911598 0.045533776 -0.046903856 -0.0076836757 0.06593528 -0.007966825
0.023976311 0.00040058358 -0.065974526 -0.042412184 0.06416729 0.035698306 -0.064299464 -0.029755007
-0.07715805 0.027217168 0.055179548 -0.07238629 0.008812868 -0.02660027 -0.058026757 -0.0029768134
-0.028903274 -0.037052523 -0.033048104 0.053828478 -0.034571316 -0.09649377 -0.10533853 -0.048927333
-0.08183383 -0.021033973 0.019200783 -0.027272593 -0.050145987 -0.0124142915 0.039826017 0.013716761
-0.059253328 0.075882584 -0.11221544 0.03887271 0.026538726 -0.01643084 -0.05498174 -0.024838937
-0.079268225 -0.02172872 -0.10650678 0.04009255 0.07287174 0.088772126 0.014171048 -0.009864038
0.026296252 -0.07150978 0.009677186 -0.052105207 -0.07629686 0.025220994 0.07873951 0.08351705
-0.07529682 -0.043887094 -0.0072159083 0.0041738204 0.04198945 0.057367727 0.004997527 0.0046802834
0.029543824 0.03170199 -0.013225205 0.0022171736 0.050221197 -0.014965534 -0.024620559 -0.04771257
0.049495354 -0.060172092 -0.051114194 0.007853456 0.046579123 0.06397305 -0.04892004 -0.0015145838
0.015727118 -0.059390493 -0.05792451 -0.06932636 -0.055268977 0.05359213 -0.054178827 -5.2738684e-05
0.00045142323 -0.029944357 -0.019017898 -0.0048569515 0.032610446 -0.046898127 -0.04568825 -0.054104682
-0.069154084 -0.008796156 0.002535453 0.026189052 0.04341888 -0.05010199 0.040999494 -0.0395621
0.005132463 0.04174941 0.03369688 0.04979399 -0.056832023 -0.017900232 -0.03871033 -0.024915386
00000000: 0a25 4cbd 24ac 283d 0ec5 7bbd e893 613c
00000010: 4800 d33c 1299 b4bc 8ccc 923c ce8c c5bc
00000020: f40c b13c 1cf1 903c 4882 063c 3ed1 733d
00000030: 5068 fb3c cac3 303d d2e8 00bd 006d 943b
00000040: fc36 2ebd 39b5 31bd c062 413d e8ac 0f3c
00000050: ec83 1cbc 0802 27bc 2d1d 6abd d436 16bd
00000060: 9407 f13c 164a 063d 504b c03c ca78 3abd
00000070: 0c47 f6bc f1a9 8bbd fca9 50bc bd9f d93c
00000080: 9198 10bd c25a 63bd 4401 b73c 48e3 12bc
00000090: de25 dcbc 82a5 84bd 8e63 bcbd 59e9 f3bc
000000a0: 4e4d 583d 2f4a 53bd 08e2 63bd e675 353c
000000b0: 88f8 a23c b086 babc e682 04bd 5da0 aebd
000000c0: 26a7 81bd 84d2 61bd 2ee7 85bd 5ca3 a9bd
000000d0: 03b9 58bd 1947 b93c 20cf 1e3c 23ac 95bd
000000e0: 299d 8dbd c93e 00bd 3e8c 313d 75ad 2a3d
000000f0: 4ae5 073d 4661 40bd 09c6 5e3d 5c5b 84bd
00000100: 7658 483d f978 353d 827e 99bd e861 87bc
00000110: 8fc6 3c3d 8b1a 4f3d fab6 89bc e164 78bd
00000120: f173 a2bd 4a53 56bd 2dcb 633c 87e4 64bd
00000130: cbf2 e93c 0c8f 223e 3609 763d 08ba bfbc
00000140: 61f9 883d 7ff0 78bc f073 493c 1b95 7bbd
00000150: 42ba a23b 1d09 f8bc 27a0 093d 1347 3a3c
00000160: e11f 1dbd 7ade e6bd 5a1f 203d 7fb4 473c
00000170: d38e afbd 9707 b4bd 84fc eabb 7dd4 343a
00000180: 7cdf 3e3c 053f 70bd 856d 213d 19ae 6dbb
00000190: 5860 94bc fb27 05bd 663d 18bd de1c 9dbd
000001a0: 845e aa3c 3180 6ebc 80bc 323c 8baa a1bd
000001b0: cdd4 023d ad38 b93c e8b7 0d3c 8167 32bd
000001c0: bebc 6dbd 1ed2 a6bc c965 7cbd a76e abbd
000001d0: 7a72 5c3d c1b8 943c 9f15 833d b5e6 163d
000001e0: 59b5 873d d2f3 e4bc eb15 27bc 5ca6 d63c
000001f0: a0b1 9abd bd2b 1cbd 93c1 b6bc 1aa9 10bd
00000200: 2506 6cbc ebe6 3abd 67a8 a2bc 8eb7 f6bc
00000210: 6643 493d 7635 95bc 8917 f1bc 7373 6e3c
00000220: 5c85 183c 28df a63d 8fc6 32bc a081 3a3d
00000230: 421e 40bd 58c7 fbbb 1309 873d 4987 02bc
00000240: f869 c43c 6b05 d239 a71d 87bd 66b8 2dbd
00000250: 246a 833d 6338 123d 70af 83bd c6c0 f3bc
00000260: 0a05 9ebd 8af6 de3c f303 623d 433f 94bd
00000270: d963 103c cfe8 d9bc 77ad 6dbd a416 43bb
00000280: 8fc6 ecbc 63c4 17bd 735d 07bd 407b 5c3d
00000290: a79a 0dbd 879e c5bd babb d7bd 0768 48bd
000002a0: 7f98 a7bd 704f acbc f64a 9d3c c66a dfbc
000002b0: e165 4dbd 5065 4bbc 9b20 233d 44bc 603c
000002c0: 9eb3 72bd 5468 9b3d 35d1 e5bd fe38 1f3d
000002d0: be67 d93c f899 86bc 8834 61bd 077b cbbc
000002e0: 6157 a2bd 6e00 b2bc 3a20 dabd 1638 243d
000002f0: c73d 953d 29ce b53d af2d 683c c69c 21bc
00000300: 3d6b d73c b873 92bd 0f8d 1e3c 456c 55bd
00000310: 8741 9cbd 429c ce3c 2e42 a13d fd0a ab3d
00000320: 3835 9abd f4c2 33bd 6d73 ecbb 8bc4 883b
00000330: 21fd 2b3d 6cfa 6a3d 4cc2 a33b 105d 993b
00000340: e405 f23c f2d9 013d 88ae 58bc 004e 113b
00000350: beb4 4d3d 0032 75bc 0eb1 c9bc 416e 43bd
00000360: a4bb 4a3d 0377 76bd 1e5d 51bd c8ab 003c
00000370: c0c9 3e3d 4d04 833d 6160 48bd 0085 c6ba
00000380: 28d6 803c 7243 73bd 4042 6dbd fbfa 8dbd
00000390: b961 62bd 6c83 5b3d 9eea 5dbd bb33 5db8
000003a0: 00ad ec39 de4d f5bc 6ccb 9bbc 1027 9fbb
000003b0: 8892 053d 4018 40bd 9a23 3bbd df9c 5dbd
000003c0: a8a0 8dbd c11d 10bc d829 263b 6c8a d63c
000003d0: ffd7 313d bf37 4dbd 16ef 273d de0b 22bd
000003e0: 382e a83b 6e01 2b3d bd05 0a3d c8f4 4b3d
000003f0: b2c8 68bd 82a3 92bc b98e 1ebd 5a1b ccbc

net.0.bias f4 [256]
-0.077935345 -0.085098065 0.15221414 -0.06809407 0.024592463 0.15901084 0.15859781 0.0020041496
0.026107144 -0.027767627 0.14174634 0.08527108 0.030872526 -0.012638845 0.046028934 0.06542213
0.039069343 -0.04608277 -0.00709175 -0.09099063 0.11844413 0.2062034 0.090559795 -0.09507998
-0.0059319716 0.15589897 0.013165804 0.16903014 -0.03174176 -0.050554696 0.093318515 -0.04505996
-0.09027461 -0.04356597 0.1965515 0.06300728 0.06640205 0.17501917 0.1673253 -0.007677701
0.15726604 0.1446929 0.03165156 0.06746686 -0.09370718 -0.034986988 -0.08018581 0.082177944
0.008219726 0.16262957 0.08075529 0.18507876 0.117841795 0.20028713 0.118798696 -0.05791035
-0.057043362 -0.111915976 -0.07002454 -0.0864742 -0.080297105 0.053839587 0.15228651 -0.044594456
0.18334955 0.16936655 0.0616717 0.20553212 -0.05012989 0.0814126 0.07093878 0.15121141
0.081997305 0.018560769 0.1687887 0.20723772 0.09725764 0.14324284 -0.06645922 0.054528397
0.18162005 -0.005104331 -0.047089532 0.008906992 0.16602635 0.021046089 -0.0627602 0.11723736
-0.0103226425 0.12887701 0.15674534 0.12413138 0.11746163 0.10497063 0.11591775 0.03623016
0.031875 0.12811938 0.13486882 0.18150316 -0.07969863 0.022655822 0.08916543 0.13050723
-0.054422997 0.08254743 0.098571025 1.651653 0.01939869 0.04661067 0.15018521 0.17705369
0.12873144 -0.057426773 0.0855421 -0.0914911 -0.023470085 0.08977465 0.087942 -0.098751664
0.17048223 0.15748815 -0.052836344 0.003362999 0.09931385 -0.09734764 0.082324505 0.12122961
-0.018760888 0.058716632 0.045698833 -0.035710473 -0.070743926 0.06802063 0.04392092 0.13218673
-0.050596062 0.0067373393 -0.030560452 -0.011619272 0.21486196 0.06543226 0.09644808 -0.07146103
0.09258591 0.15780579 -0.002468525 -0.112291135 0.0059403726 0.19499518 0.17199212 0.09115724
-0.041792557 0.069055885 0.08070131 0.18079665 0.11853178 0.14928813 0.13320418 0.050885066
-0.009446998 0.13728452 0.13882725 0.089951195 0.18512252 0.07238303 0.042372506 0.084014304
0.06617396 0.06546255 0.15427257 -0.0046136966 0.17713784 0.050508566 0.123420455 -0.0659233
0.21461068 -0.01564358 -0.057151336 0.088745505 0.12590799 0.030209966 -0.024345962 0.1928712
-0.03959214 -0.0028611517 0.10776443 -0.09221559 0.026950546 -0.016298577 0.009297342 0.11109822
0.16298832 0.10798625 0.10520064 0.06286658 0.11155942 0.15433782 0.10294307 -0.023352407
0.0036617133 0.14606416 0.118507035 0.10430979 0.20801738 0.05799113 -0.025883174 0.112416536
0.13314854 0.016560057 0.14458776 0.15735161 0.12824292 0.13117452 0.1683782 0.02627541
0.13064997 0.075272165 0.14006725 0.03341278 0.07853307 0.043453265 -0.05424212 -0.057676286
-0.11530935 0.17617123 -0.027249986 0.15383798 0.017149871 0.21770388 -0.11631199 0.18325293
0.02065377 -0.023312028 0.1936161 0.17671332 0.038471214 0.17835878 0.21996799 0.14075467
-0.0049011908 0.21283728 0.1629366 0.050829414 0.05461518 0.077375256 0.20498893 -0.0683035
-0.06587325 0.123291485 0.036895093 -0.07142232 -0.00059383165 -0.048850812 0.15004511 -0.029150162
00000000: 919c 9fbd e547 aebd 06de 1b3e e774 8bbd
00000010: 2276 c93c bdd3 223e 7767 223e 0d58 033b
00000020: a6de d53c ef78 e3bc f425 113e 9ba2 ae3d
00000030: 61e8 fc3c 2813 4fbc d688 3c3d 0afc 853d
00000040: 2d07 203d 49c1 3cbd e961 e8bb 4c59 babd
00000050: d692 f23d fc26 533e 6a77 b93d 4bb9 c2bd
00000060: fc60 c2bb fba3 1f3e 62b5 573c 3d16 2d3e
00000070: a603 02bd 7112 4fbd c71d bf3d cb90 38bd
00000080: e5e1 b8bd 3b72 32bd cc44 493e f609 813d
00000090: ccfd 873d 3a38 333e 5357 2b3e 3995 fbbb
000000a0: 590a 213e 602a 143e 11a5 013d 112c 8a3d
000000b0: 8de9 bfbd 844e 0fbd 7538 a4bd e94c a83d
000000c0: 08ac 063c 5e88 263e 0863 a53d 4985 3d3e
000000d0: 0a57 f13d 1218 4d3e bb4c f33d 6733 6dbd
000000e0: 4da6 69bd 3434 e5bd 0769 8fbd 6319 b1bd
000000f0: cf72 a4bd e686 5c3d fff0 1b3e ada8 36bd
00000100: fcbf 3b3e 6d6e 2d3e 779b 7c3d 0377 523e
00000110: 0055 4dbd a6bb a63d 5a48 913d 2ad7 1a3e
00000120: 34ee a73d c10c 983c f2d6 2c3e 2036 543e
00000130: 032f c73d 40ae 123e c61b 88bd 2b59 5f3d
00000140: 9bfa 393e 3b42 a7bb f4e0 40bd a2ee 113c
00000150: d002 2a3e d968 ac3c 6b88 80bd 241a f03d
00000160: 4d20 29bc 56f8 033e da81 203e 9838 fe3d
00000170: b98f f03d d7fa d63d 4966 ed3d 1466 143d
00000180: 5c8f 023d ba31 033e 0d1b 0a3e f7db 393e
00000190: 0939 a3bd b498 b93c 5d9c b63d b0a3 053e
000001a0: a6ea 5ebd a10e a93d 9bdf c93d 5e69 d33f
000001b0: 00ea 9e3c d4ea 3e3d 27ca 193e 904d 353e
000001c0: 2dd2 033e 5638 6bbd b230 af3d b05f bbbd
000001d0: 5644 c0bc c6db b73d ef1a b43d 503e cabd
000001e0: e592 2e3e 9344 213e ec6a 58bd c365 5c3b
000001f0: 0f65 cb3d 335e c7bd c099 a83d 3b47 f83d
00000200: 6fb0 99bc da80 703d b32e 3b3d 2545 12bd
00000210: 31e2 90bd 664e 8b3d 6ce6 333d f55b 073e
00000220: d13d 4fbd e6c4 dc3b ea59 fabc c25e 3ebc
00000230: c604 5c3e 5901 863d 9286 c53d 295a 92bd
00000240: ae9d bd3d d797 213e fac6 21bb e5f8 e5bd
00000250: 75a7 c23b d1ac 473e b41e 303e a6b0 ba3d
00000260: ac2e 2bbd 2c6d 8d3d ba46 a53d c222 393e
00000270: cac0 f23d fdde 183e ad66 083e dc6c 503d
00000280: 95c7 1abc 5094 0c3e bb28 0e3e 5538 b83d
00000290: c290 3d3e 8e3d 943d cb8e 2d3d b10f ac3d
000002a0: 3786 873d 3b11 863d a1f9 1d3e 7e2e 97bb
000002b0: 9f63 353e 12e2 4e3d ddc3 fc3d cc02 87bd
000002c0: e7c2 5b3e f726 80bc 8517 6abd 34c0 b53d
000002d0: 06ee 003e e47a f73c 2f71 c7bc 0780 453e
000002e0: 5e2b 22bd 2982 3bbb 99b3 dc3d 87db bcbd
000002f0: 64c7 dc3c 9884 85bc e153 183c 7787 e33d
00000300: 69e6 263e e527 dd3d 6f73 d73d 32c0 803d
00000310: 4479 e43d bc0a 1e3e d1d3 d23d 8c4d bfbc
00000320: 5bf9 6f3b d891 153e d1b3 f23d 5fa0 d53d
00000330: 8202 553e 1b88 6d3d f308 d4bc a43a e63d
00000340: 1758 083e f5a8 873c d00e 143e c820 213e
00000350: 1d52 033e 9d52 063e 566b 2c3e 873f d73c
00000360: 1bc9 053e 4b28 9a3d ca6d 0f3e d7db 083d
00000370: f2d5 a03d 0dfc 313d fc2c 5ebd f83d 6cbd
00000380: 4f27 ecbd 3b66 343e 5d3b dfbc b487 1d3e
00000390: e37d 8c3c c4ed 5e3e fb34 eebd a8a6 3b3e
000003a0: 1832 a93c def8 bebc 4d43 463e 56f4 343e
000003b0: fe93 1d3d afa3 363e 4a3f 613e fe21 103e
000003c0: 2b9a a0bb 04f2 593e dad8 263e 8132 503d
000003d0: 2bb4 5f3d eb76 9e3d 9ee8 513e b5e2 8bbd
000003e0: 8ee8 86bd 3f80 fc3d 4f1f 173d de45 92bd
000003f0: 5eab 1bba ca17 48bd 6da5 193e 52cc eebc

net.2.weight f4 [256, 256]
0.001981099 0.02135134 -0.05555829 0.048145708 0.05403825 0.04620911 -0.006978536 0.05196674
0.0100833215 -0.04867681 -0.043424632 0.046173602 0.027755711 0.029902507 -0.07091205 0.06277949
-0.05786115 -0.079616435 0.012884717 -0.026795777 0.052378815 0.008929796 0.025281787 0.0459528
-0.03811487 0.056689285 -0.022378696 -0.014305991 0.008745047 -0.023433065 -0.012683584 0.007981281
0.0011039053 -0.084954984 -0.032489676 0.05769582 0.03840005 -0.058921624 0.020269938 -0.00965211
-0.05949511 0.027186416 0.041397933 -0.063011184 0.017566122 0.050523125 -0.025646742 0.03239122
0.016359847 -0.038319334 -0.044099372 -0.052025083 -0.023649603 -0.029754525 0.0456441 0.025060028
0.025796035 0.03757978 -0.05233434 -0.042981185 0.009394734 -0.059175376 0.04512125 0.038361937
0.027365008 -0.02118343 0.008921106 0.020438401 -0.057779666 0.012084541 0.024377927 -0.020773647
0.035607394 -0.007490311 -0.07013715 -0.026703615 0.042503998 -0.0062643425 -0.021244504 -0.033203077
-0.049450003 -0.054735757 -0.030546617 -0.05002026 -0.023657385 0.035859473 -0.03672368 0.017346358
-0.01894144 -0.007147797 -0.038756274 -0.0068407785 -0.024498332 -0.06634602 -0.032104295 0.035383835
0.032487933 -0.041895784 -0.0086432025 -0.060497284 -0.04770646 -0.0243629 -0.06281573 -0.0133628575
-0.052189995 -0.013324836 0.027074004 0.0047513917 0.04909522 -0.059670128 -0.036597285 0.01572325
-0.019870792 -0.044825643 0.05091813 -0.04382357 0.0432387 -0.012081604 0.026513547 -0.02300401
-0.018151037 0.0563413 -0.009028219 -0.025718845 -0.015725095 0.06106373 -0.050828665 -0.0027692958
-0.027078161 -0.035736334 -0.032768436 0.0022875 0.0447326 0.028947841 0.0044412166 0.030131929
-0.050064255 -0.0372759 -0.051195957 0.041104797 0.022308003 0.018556714 -0.005485199 0.029134084
-0.029527996 0.022619637 -0.037412062 -0.0048730434 -0.0318636 0.010863229 -0.052480273 -0.059935026
-0.050337777 -0.051940743 0.020080004 -0.054691356 -0.028361015 0.036253393 -0.042457946 -0.039571535
0.033861127 0.012165115 -0.0139421 0.02104499 -0.056650106 -0.052904587 -0.049152173 0.020886177
0.024502117 0.020172792 0.034092914 -0.019285014 -0.06774782 -0.062259443 -0.05425121 0.024340354
-0.0034918927 0.025745163 0.04632375 0.023267834 0.007991555 0.03188505 0.028868193 -0.042589758
-0.0056695533 -0.029511603 0.007749372 -0.07700982 0.06602367 0.014443061 -0.024253719 0.043252014
-0.023916423 0.019613007 0.0400483 0.039745238 -0.053901438 0.020500943 -0.0005411673 -0.005877837
0.011639437 0.028416166 -0.017371505 0.008438056 -0.054736655 -0.031432696 0.045605745 -0.034007445
-0.019924745 -0.028989065 0.045388814 0.02022808 -0.010094558 0.026204925 0.03515776 -0.0353805
-0.021564482 -0.024515934 -0.032254227 -0.04006541 0.04802894 0.02410496 -0.044021685 -0.060415484
0.037330113 -0.031806953 -0.011817595 -0.0366475 -0.06089551 -0.044493303 -0.056926608 -0.07425144
0.012102234 0.0043305955 -0.049164318 -0.024924101 0.03363193 0.002412983 -0.054048516 0.041528177
0.01025816 -0.0024130119 0.037032526 -0.04523977 -0.025125181 -0.01628853 0.052591804 -0.06091685
-0.021277599 0.00043975448 -0.044072635 -0.0025350437 0.0044739656 -0.058781922 -0.054481957 -0.06303061
00000000: 53d5 013b 01e9 ae3c 1791 63bd 6f34 453d
00000010: 3657 5d3d c445 3d3d 34ac e4bb 14db 543d
00000020: 8434 253c 5661 47bd 07de 31bd 8820 3d3d
00000030: f25f e33c 1af6 f43c 563a 91bd 8992 803d
00000040: d0ff 6cbd f10d a3bd 6c1a 533c d182 dbbc
00000050: 2b8b 563d 474e 123c c01b cf3c 0139 3c3d
00000060: 571e 1cbd 0633 683d 8753 b7bc ad63 6abc
00000070: 6347 0f3c b3f6 bfbc cfce 4fbc ebc3 023c
00000080: eab0 903a e1fc adbd e513 05bd 7452 6c3d
00000090: 5f49 1d3d cd57 71bd 240d a63c e223 1ebc
000000a0: 25b1 73bd 0cb6 de3c e190 293d 020c 81bd
000000b0: d4e6 8f3c 56f1 4e3d 1e19 d2bc a8ac 043d
000000c0: 1605 863c bcf4 1cbd 8ba1 34bd 4118 55bd
000000d0: d0bc c1bc c3bf f3bc 4ff5 3a3d b04a cd3c
000000e0: 3552 d33c 41ed 193d 885c 56bd 0a0d 30bd
000000f0: 5fec 193c e161 72bd 0fd1 383d 6821 1d3d
00000100: 952c e03c df88 adbc d529 123c 6f6e a73c
00000110: 5faa 6cbd 3dfe 453c 38b4 c73c 7f2d aabc
00000120: 0fd9 113d 4871 f5bb 11a4 8fbd 8ac1 dabc
00000130: ac18 2e3d 1d45 cdbb f408 aebc f3ff 07bd
00000140: 168c 4abd 9a32 60bd e63c fabc 0be2 4cbd
00000150: 22cd c1bc 62e1 123d 926b 16bd f319 8e3c
00000160: 142b 9bbc 1138 eabb e6be 1ebd 9c28 e0bb
00000170: bab0 c8bc 6ce0 87bd cb7f 03bd a4ee 103d
00000180: 1112 053d ea9a 2bbd 389c 0dbc 00cc 77bd
00000190: d967 43bd b494 c7bc 89a5 80bd e3ef 5abc
000001a0: 2dc5 55bd 6a50 5abc 4dca dd3c 90b1 9b3b
000001b0: 1218 493d aa68 74bd 09e7 15bd 0cce 803c
000001c0: 12c8 a2bc 189b 37bd 878f 503d 5880 33bd
000001d0: 101b 313d ecf1 45bc f032 d93c e872 bcbc
000001e0: 7cb1 94bc 23c6 663d 18eb 13bc 54b0 d2bc
000001f0: ead1 80bc f61d 7a3d b831 50bd 137d 35bb
00000200: 05d3 ddbc 4360 12bd 3238 06bd e2e9 153b
00000210: 8839 373d 0624 ed3c a087 913b 3cd7 f63c
00000220: 2d10 4dbd 9dae 18bd dab2 51bd 815d 283d
00000230: 46bf b63c 4004 983c 2fbd b3bb 9aaa ee3c
00000240: b2e4 f1bc d14c b93c 643d 19bd 0dae 9fbb
00000250: 6883 02bd affb 313c 8ef5 56bd 6e7e 75bd
00000260: fc2e 4ebd d1bf 54bd d27e a43c 0b04 60bd
00000270: 5c55 e8bc 707e 143d 62e8 2dbd c315 22bd
00000280: f7b1 0a3d 3150 473c 686d 64bc 8b66 ac3c
00000290: f109 68bd 7bb2 58bd ca53 49bd 7d19 ab3c
000002a0: aab8 c83c 6941 a53c 03a5 0b3d 9bfb 9dbc
000002b0: 5ebf 8abd c203 7fbd 8436 5ebd 6c65 c73c
000002c0: 3dd8 64bb 85e7 d23c f9bd 3d3d 2f9c be3c
000002d0: 03ef 023c e699 023d fd7c ec3c 9972 2ebd
000002e0: a9c7 b9bb 51c2 f1bc 72ee fd3b 53b7 9dbd
000002f0: 6b37 873d 97a2 6c3c bcaf c6bc 0629 313d
00000300: 60ec c3bc 75ab a03c b009 243d e7cb 223d
00000310: c1c7 5cbd 98f1 a73c 1fdd 0dba df9a c0bb
00000320: 56b3 3e3c 05c9 e83c b04e 8ebc c63f 0a3c
00000330: 8b33 60bd 92bf 00bd 17cd 3a3d 644b 0bbd
00000340: 3839 a3bc 7a7a edbc 9fe9 393d 5cb5 a53c
00000350: a563 25bc b6ab d63c 9501 103d 25eb 10bd
00000360: ffa7 b0bc a4d5 c8bc 021d 04bd a11b 24bd
00000370: feb9 443d c477 c53c 1550 34bd 3a76 77bd
00000380: 76e7 183d 0248 02bd 969e 41bc b01b 16bd
00000390: 926d 79bd 9c3e 36bd e02b 69bd 2411 98bd
000003a0: 7348 463c abe7 8d3b 8660 49bd a12d ccbc
000003b0: a2c1 093d 2323 1e3b fa61 5dbd 7319 2a3d
000003c0: d711 283c 9f23 1ebb 6baf 173d 564d 39bd
000003d0: 53d3 cdbc 866f 85bc 816a 573d f283 79bd
000003e0: 5c4e aebc d98e e639 8285 34bd fa22 26bb
000003f0: 589a 923b 50c5 70bd 7928 5fbd 3116 81bd

net.2.bias f4 [256]
-0.06925688 0.0063409717 0.032230187 0.024677653 -0.068880215 0.045326214 -0.09798113 0.078294136
-0.025712686 0.079325594 0.031696934 -0.019565394 -0.09585746 0.020283842 0.06896265 -0.068938136
-0.037874155 0.13642351 0.10857309 0.025473842 -0.03166565 -0.0015081536 -0.008924274 0.13596815
-0.029429767 0.08654153 0.06063233 0.03749384 -0.07210093 0.007611709 0.076502085 0.006486908
0.079044275 0.08522623 0.0071366653 -0.01293377 0.09230802 -0.08330946 0.087094724 -0.036357578
0.0024324076 0.075996295 -0.0036965897 -0.08411846 0.06798289 0.12514843 -0.08440949 0.026006043
0.06515827 0.005824777 0.057709966 -0.04143996 0.0299471 0.022169024 0.05150374 -0.05235022
-0.08524782 -0.021921208 -0.013380872 -0.003320287 -0.09479117 -0.09298107 -0.03681049 -0.05708918
0.09524292 -0.007088791 0.02171628 0.045444652 -0.05530761 -0.007993698 0.08640505 -0.05802763
0.099316806 -0.003864412 0.017349312 0.13866885 -0.028752264 0.037083056 0.10456169 -0.03549165
0.012572642 0.08455158 0.081789166 0.0842764 0.08694805 0.073723696 0.103575364 -0.064825654
-0.053526033 0.024542527 0.057945203 0.033524517 -0.07108282 0.11038768 -0.057324395 -0.0724812
0.08717767 0.047234528 -0.017165454 0.12957464 -0.0072470345 -0.0013382494 0.09198405 0.032704927
-0.08366474 -0.009254161 0.037710596 0.09051017 -0.07883616 0.0040822546 0.089902304 -0.061703105
-0.032526553 0.10185711 -0.0014365681 0.043282565 -0.0632222 -0.06932137 -0.010138255 0.073213995
0.094502255 0.116637506 0.020603355 0.029832419 -0.08569193 0.10449551 -0.02857109 -0.04872237
-0.012370427 0.014274701 0.04732843 0.0432247 0.033768892 -0.04149084 -0.010978956 0.041769017
0.0072316006 0.009953013 -0.009176931 0.09383947 0.02969381 -0.07278648 0.0076404274 -0.03821879
0.07724373 0.09696926 0.1000501 -0.055304475 -0.072563484 -0.05418419 0.055882726 0.12367079
0.019810932 0.04934631 0.043034006 -0.017446978 0.040128257 -0.0059919683 0.09911775 -0.022954606
0.046125736 0.1043046 0.009279367 0.0684943 0.051224843 0.065233454 0.05699592 0.112578586
-0.02170199 -0.059487637 0.036111493 0.15268913 0.010563094 -0.03068345 -0.027335832 -0.025978565
0.054329634 0.007726179 -0.004491561 -0.040682767 -0.034985334 0.037949532 -0.026984764 0.10290662
0.061982736 -0.04988076 0.106313586 0.015256092 -0.02850825 0.15925252 -0.023629576 -0.08423716
0.05740549 0.02567344 0.07792985 -0.013759412 -0.010142162 0.0038179902 -0.013084831 0.15013747
-0.057610966 0.08325237 -0.037292186 0.042475823 0.13791648 0.09984047 0.13246246 -0.01274727
-0.0785119 -0.045082077 0.05513145 -0.032652453 -0.07675667 0.0011068862 -0.005222942 -0.007041499
0.022484561 -0.034284532 -0.0017382341 0.04548317 0.10273716 0.12617935 0.0029584446 0.035150368
0.014569637 -0.055193406 0.07966307 0.04636911 0.036838595 -0.00930187 0.0036716433 0.072522596
-0.09981906 0.12804602 0.008630422 -0.06855059 -0.03847315 0.06393112 -0.039681207 0.04432463
0.12196079 0.14701137 0.008079023 -0.006788004 -0.0011562445 -0.056220185 0.04014356 -0.034866277
-0.059375145 -0.04576634 -0.015567066 0.0925154 -0.08578341 -0.047120888 -0.058686998 0.02852254
00000000: 8dd6 8dbd edc7 cf3b cd03 043d ca28 ca3c
00000010: 1211 8dbd fba7 393d 55aa c8bd ad58 a03d
00000020: 69a3 d2bc 7575 a23d a5d4 013d 9b47 a0bc
00000030: ea50 c4bd 4d2a a63c 4a3c 8d3d 702f 8dbd
00000040: ee21 1bbd 9bb2 0b3e 915b de3d 85ae d03c
00000050: d7b3 01bd 3dad c5ba 1e37 12bc 3c3b 0b3e
00000060: b216 f1bc b03c b13d 9b59 783d 2493 193d
00000070: a7a9 93bd a56b f93b 20ad 9c3d 2190 d43b
00000080: f7e1 a13d 178b ae3d b0da e93b 2ae8 53bc
00000090: fd0b bd3d 269e aabd b85e b23d afeb 14bd
000000a0: 0769 1f3b f2a3 9b3d 7c42 72bb 4d46 acbd
000000b0: 9d3a 8b3d e926 003e e2de acbd a00a d53c
000000c0: b371 853d c5dd be3b 4961 6c3d f3bc 29bd
000000d0: 9f53 f53c d09b b53c 96f5 523d 2f6d 56bd
000000e0: 6996 aebd 1b94 b3bc 723b 5bbc 2c99 59bb
000000f0: df21 c2bd dc6c bebd 99c6 16bd 58d6 69bd
00000100: b80e c33d 1749 e8bb 57e6 b13c 2c24 3a3d
00000110: 3c8a 62bd 00f8 02bc 21f5 b03d 61ae 6dbd
00000120: 9c66 cb3d 1342 7dbb 2520 8e3c 35ff 0d3e
00000130: de89 ebbc 67e4 173d 7024 d63d b15f 11bd
00000140: 7cfd 4d3c 6129 ad3d 1481 a73d 1b99 ac3d
00000150: d211 b23d 73fc 963d 521f d43d 50c3 84bd
00000160: 1d3e 5bbd 690d c93c f357 6d3d 0151 093d
00000170: df93 91bd f012 e23d fccc 6abd 0671 94bd
00000180: 358a b23d fe78 413d 919e 8cbc 37af 043e
00000190: 8878 edbb 3368 afba 2262 bc3d 9af5 053d
000001a0: 6b58 abbd c49e 17bc 6d76 1a3d 655d b93d
000001b0: da74 a1bd 6fc4 853b b31e b83d 65bc 7cbd
000001c0: 903a 05bd 769a d03d 3a4b bcba 0f49 313d
000001d0: a47a 81bd 5df8 8dbd ec1a 26bc 38f1 953d
000001e0: 668a c13d a5df ee3d 5ec8 a83c 1e63 f43c
000001f0: 407f afbd be01 d63d eb0d eabc 1c91 47bd
00000200: 55ad 4abc 6fe0 693c 75db 413d 620c 313d
00000210: 4051 0a3d 4df2 29bd 14e1 33bc fd15 2b3d
00000220: 10f7 ec3b f611 233c d75a 16bc e82e c03d
00000230: 6f40 f33c 1411 95bd 8d5c fa3b 4e8b 1cbd
00000240: f631 9e3d d297 c63d 11e7 cc3d f286 62bd
00000250: 2a9c 94bd 3ef0 5dbd 49e5 643d 1c47 fd3d
00000260: 894a a23c 5b1f 4a3d 6d44 303d f7ec 8ebc
00000270: 875d 243d 4658 c4bb 3ffe ca3d 4c0b bcbc
00000280: 57ee 3c3d a69d d53d 7c08 183c bd46 8c3d
00000290: 24d1 513d 1e99 853d 8e74 693d 9a8f e63d
000002a0: 5fc8 b1bc 4fa9 73bd a5e9 133d 8a5a 1c3e
000002b0: d410 2d3c dc5b fbbc 65ef dfbc 00d1 d4bc
000002c0: c088 5e3d e32b fd3b f22d 93bb f9a2 26bd
000002d0: c84c 0fbd f870 1b3d 270f ddbc b5c0 d23d
000002e0: 9ce1 7d3d c54f 4cbd f0ba d93d b0f4 793c
000002f0: 228a e9bc 1813 233e d092 c1bc 8884 acbd
00000300: 0522 6b3d 1b51 d23c af99 9f3d 286f 61bc
00000310: 502b 26bc 3f37 7a3b c261 56bc a3bd 193e
00000320: 7af9 6bbd 3880 aa3d b1bf 18bd 21fb 2d3d
00000330: fa39 0d3e 2979 cc3d 3da4 073e edd9 50bc
00000340: d9ca a0bd fca7 38bd 84d1 613d 94be 05bd
00000350: 9a32 9dbd f014 913a 3725 abbb 60bc e6bb
00000360: 8b31 b83c f06d 0cbd 75d5 e3ba 8f4c 3a3d
00000370: dc67 d23d 2935 013e 77e2 413b d5f9 0f3d
00000380: 7db5 6e3c 7b12 62bd 6426 a33d 89ed 3d3d
00000390: 11e4 163d df66 18bc f49f 703b ba86 943d
000003a0: ef6d ccbd 7f1e 033e 9d66 0d3c 4064 8cbd
000003b0: 0696 1dbd 52ee 823d c388 22bd be8d 353d
000003c0: 94c6 f93d 268a 163e e15d 043c e86d debb
000003d0: 218d 97ba 2347 66bd 936d 243d f1cf 0ebd
000003e0: 5a33 73bd 7c75 3bbd 020d 7fbc b778 bd3d
000003f0: 36af afbd d501 41bd c761 70bd 1aa8 e93c

net.4.weight f4 [40, 256]
0.073368356 -0.014915309 -0.015045214 0.004413818 0.07411327 0.03412994 0.021568341 0.016074462
0.04476878 0.009361351 -0.04141214 0.05041332 -0.007524503 -0.018483922 0.00786672 0.055017404
0.017853517 -0.056325354 0.030439945 -0.03848366 0.04792889 0.017076025 0.05190742 0.014932619
-0.02810757 0.028871855 -0.048404455 -0.012952673 -0.1640183 -0.05558805 0.056793727 -0.23235454
0.017988821 -0.028007735 0.032665264 0.0065597673 0.041156683 0.042672217 -0.01818772 0.06648878
-0.047373712 -0.06396636 0.006059596 0.07371051 -0.045948762 -0.013503677 0.009785625 0.08219035
-0.01773707 0.20600669 0.025554974 0.028576227 -0.41918322 -0.07279708 0.0043279408 0.025624776
-0.028439077 0.06513978 0.04568599 0.026219055 0.010604657 0.02343236 -0.03974865 -0.016194971
-0.028773382 -0.05301128 0.0025717958 0.12099328 0.08876887 0.16630566 0.053936377 0.03479274
-0.015967518 -0.026095439 0.0991188 0.04740775 0.10073206 -0.05744481 0.012087764 0.027112598
-0.033622675 -0.021620844 0.00037338556 0.033869904 0.053376157 0.17306851 0.01869173 0.01008389
0.03657325 -0.0040300204 -0.05192477 -0.07255749 -0.020121915 0.39084208 -0.01380098 0.004709775
0.02597879 -0.048730236 0.035671566 -0.010416408 0.048338708 0.06331305 -0.038196873 -0.0138347065
-0.039945494 0.092586525 -0.0035813209 -0.078941174 -0.004546777 -0.06419792 -0.058878098 0.03291734
0.06266048 -0.00361055 0.004300905 0.024364928 0.04118565 -0.026498862 0.01249025 -0.027926857
0.051284947 -0.0076289363 -0.003756264 0.22809696 0.010063743 -0.050101224 -0.019053107 0.03268226
-0.00051662984 -0.037220463 -0.038798526 -0.015630161 -0.027698161 0.005544762 0.020869803 0.061364144
0.02127672 -0.06645282 -0.027839312 0.1752722 0.008441518 0.011726431 0.07814748 -0.010084276
0.015774595 0.01940405 -0.06523684 -0.05626767 0.07455159 0.01681624 0.10792507 -0.033358175
0.040258035 0.025603931 0.029732121 0.055666108 -0.0023567546 -0.0012885085 -0.053105574 -0.04827652
0.016981266 -0.055830393 0.016663378 -0.033192575 -0.074693725 -0.028126923 -0.04193666 0.036916435
0.029123548 0.06779711 0.054088585 0.02504521 0.041969415 0.026012085 -0.044385143 -0.014636919
-0.0447987 -0.0039809984 0.018371122 -0.054626305 -0.038355146 -0.08203337 -0.004727628 0.04408512
0.017233877 -0.008651868 -0.047085255 0.12348722 0.03777617 0.14652932 -0.007894779 -0.02266903
-0.003769113 0.0637064 -0.05254582 0.058540363 0.02862294 0.040761106 0.027732708 0.031523764
0.049217217 0.0069169886 0.021006411 -0.0043439628 0.044306222 0.043468244 -0.016882699 0.004058415
0.15746072 0.1356711 0.058734052 0.04074305 0.07732242 0.023153422 -0.02807813 -0.047352906
-0.016849238 0.06385582 0.078018956 0.03868134 0.0064075696 0.044586964 -0.04339689 0.026218478
-0.011070608 0.017480796 0.031644814 0.0075953174 0.059596308 -0.050877374 -0.082193896 -0.091561615
0.116314635 -0.06378542 0.021067008 -0.06325936 -0.013079259 0.035124395 0.03982918 -0.30851907
0.028328426 0.02911477 0.096730694 -0.029332947 0.024954878 0.0908472 -0.064129055 0.05302191
0.06312828 0.046795603 0.052942067 -0.010949956 0.008301276 0.17636551 0.03983353 0.042599753
00000000: 2642 963d 575f 74bc 3480 76bc caa1 903b
00000010: b3c8 973d d6cb 0b3d 17b0 b03c 97ae 833c
00000020: 785f 373d 5a60 193c c79f 29bd 337e 4e3d
00000030: 1b90 f6bb 986b 97bc 6ae3 003c ee59 613d
00000040: 8a41 923c 6ab5 66bd 315d f93c 0ba1 1dbd
00000050: 1551 443d 05e3 8b3c e09c 543d f2a7 743c
00000060: d941 e6bc ab84 ec3c c043 46bd 7337 54bc
00000070: 6af4 27be 4cb0 63bd 8aa0 683d 59ee 6dbe
00000080: 4b5d 933c 7a70 e5bc 03cc 053d 51f3 d63b
00000090: e993 283d 10c9 2e3d 6afe 94bc 452b 883d
000000a0: f00a 42bd cc00 83bd 938f c63b 89f5 963d
000000b0: c534 3cbd 873e 5dbc e353 203c 6a53 a83d
000000c0: 554d 91bc 6bf3 523e aa58 d13c b118 ea3c
000000d0: 2f9f d6be a316 95bd 66d1 8d3b 0deb d13c
000000e0: 11f9 e8bc 0168 853d 3c21 3b3d 58c9 d63c
000000f0: 28bf 2d3c 38f5 bf3c 7bcf 22bd 51ab 84bc
00000100: 28b6 ebbc 5b22 59bd 938b 283b 53cb f73d
00000110: 74cc b53d 084c 2a3e 64ec 5c3d d582 0e3d
00000120: 50ce 82bc 1ac6 d5bc ccfe ca3d a12e 423d
00000130: 9c4c ce3d 404b 6bbd c20b 463c 3d1b de3c
00000140: eeb7 09bd 321e b1bc f6c2 c339 2bbb 0a3d
00000150: f5a0 5a3d df38 313e 661f 993c e636 253c
00000160: d5cd 153d 430e 84bb 11af 54bd 0599 94bd
00000170: b7d6 a4bc 741c c83e 811d 62bc 7554 9a3b
00000180: 79d1 d43c 5b99 47bd 591c 123d 95a9 2abc
00000190: cffe 453d 46aa 813d 5374 1cbd f7aa 62bc
000001a0: e39d 23bd 019e bd3d 98b4 6abb e9ab a1bd
000001b0: 21fd 94bb 337a 83bd 292a 71bd 55d4 063d
000001c0: 2354 803d fa9e 6cbb 9bee 8c3b f598 c73c
000001d0: 49b2 283d 2414 d9bc e8a3 4c3c ddc6 e4bc
000001e0: 2a10 523d 28fc f9bb a72b 76bb 4092 693e
000001f0: 66e2 243c f136 4dbd 4315 9cbc d5dd 053d
00000200: 716e 07ba 7c74 18bd 34eb 1ebd d30a 80bc
00000210: 41e7 e2bc d6b0 b53b 26f7 aa3c f858 7b3d
00000220: 844c ae3c 6b18 88bd 450f e4bc 8e7a 333e
00000230: 4b4e 0a3c 3720 403c c90b a03d 8538 25bc
00000240: b939 813c 3ef5 9e3c e49a 85bd ee78 66bd
00000250: 81ae 983d 36c2 893c d207 dd3d 95a2 08bd
00000260: 9ce5 243d 56bf d13c c790 f33c 2502 643d
00000270: c873 1abb 2ce3 a8ba 3b85 59bd 9abd 45bd
00000280: 4c1c 8b3c 69ae 64bd a381 883c f0f4 07bd
00000290: 06f9 98bd 6f6a e6bc c6c5 2bbd b035 173d
000002a0: 8294 ee3c 36d9 8a3d fe8b 5d3d 9d2b cd3c
000002b0: 1fe8 2b3d 4c17 d53c 32cd 35bd b0cf 6fbc
000002c0: d77e 37bd 0973 82bb 097f 963c d5bf 5fbd
000002d0: 491a 1dbd 1d01 a8bd 38ea 9abb 9992 343d
000002e0: 0f2e 8d3c 91c0 0dbc 78dc 40bd dee6 fc3d
000002f0: 2fbb 1a3d c80b 163e 1a59 01bc 67b4 b9bc
00000300: 3903 77bb 8078 823d 493a 57bd 05c8 6f3d
00000310: a87a ea3c 1ef5 263d b42f e33c 101f 013d
00000320: fe97 493d e8a7 e23b a315 ac3c cd57 8ebb
00000330: 717a 353d c20b 323d 964d 8abc 74fc 843b
00000340: 623d 213e 5ded 0a3e 1e93 703d 2fe2 263d
00000350: 385b 9e3d 3fac bd3c 1b04 e6bc 1ff5 41bd
00000360: 6a07 8abc d7c6 823d 67c8 9f3d 5370 1e3d
00000370: 97f6 d13b d2a0 363d f0c0 31bd 22c8 d63c
00000380: 7f61 35bc e333 8f3c fe9d 013d 24e2 f83b
00000390: 421b 743d cb64 50bd 4655 a8bd a884 bbbd
000003a0: 5e36 ee3d eea1 82bd b894 ac3c 208e 81bd
000003b0: 634a 56bc 99de 0f3d ec23 233d 36f6 9dbe
000003c0: 0411 e83c 1982 ee3c be1a c63d a64b f0bc
000003d0: 2c6e cc3c 190e ba3d 1856 83bd 812d 593d
000003e0: 6649 813d bfac 3f3d c8d9 583d 7267 33bc
000003f0: 1302 083c 2999 343e 7c28 233d 147d 2e3d

net.4.bias f4 [40]
0.009616804 0.004799688 0.001302277 0.057718687 0.02380194 0.031211106 0.029555185 0.03839552
-0.021512644 -0.1010691 0.016584769 -0.0078012934 0.07024367 -0.024122689 0.047914956 -0.007859821
-0.05356323 0.04703834 -0.047794156 -0.018804805 0.05741095 0.08547306 -0.010095401 0.050418854
0.06038047 0.026471447 0.06616323 -0.012825518 -0.057743143 -0.05413832 0.0021744976 -2.0099003e-05
-0.029389938 -0.023027025 0.0438442 0.00858621 0.08577345 0.12933807 0.017561272 0.019346565
00000000: cd8f 1d3c b346 9d3b 2ab1 aa3a 6e6a 6c3d
00000010: 49fc c23c 6fae ff3c b71d f23c 9f44 1d3d
00000020: 493b b0bc 51fd cebd c8dc 873c fea1 ffbb
00000030: eadb 8f3d f29c c5bc 7942 443d 7bc6 00bc
00000040: 1e65 5bbd 46ab 403d cec3 43bd 890c 9abc
00000050: bf27 6b3d 800c af3d 2e67 25bc 0084 4e3d
00000060: 8351 773d a6da d83c 9680 873d 1f22 52bc
00000070: 1384 6cbd 25c0 5dbd 0482 0e3b 489a a8b7
00000080: 2bc3 f0bc 2ca3 bcbc fa95 333d 2dad 0c3c
00000090: fea9 af3d 3371 043e a8dc 8f3c b07c 9e3c
