Tetris/tetris_vs_heuristic_policy.pth (torch, 520633 bytes, 6 tensors)

net.0.weight f4 [256, 207]
00000000: c21d 653d 20b4 8a3c 4988 843d 6a79 2a3d
00000010: 40f2 3dbb 0008 a43a f2b8 3c3d 8476 6cbc
00000020: 2299 2bbd 00c8 9eb8 bad8 01bd 42df 2c3d
00000030: 70bf 543d 1e6d 653d 761b c5bc 308c b0bb
00000040: ccba 273d 087b d9bc 925d 653d b7d4 89bd
00000050: dcc9 523d 8864 593c 00f1 4abc c0ba 053c
00000060: fe0d 693d 0631 7f3d 724d 683d e1fa 2bbc
00000070: e67b d3bc d082 27bd 5dc3 18bd dccb e23c
00000080: c4c8 bf3c 9072 5bbd 908b 073d 929d 0b3d
00000090: fc28 de3c e378 573c b4fb 4a3d 4260 413d
000000a0: f32c 75bd d6de febc 3b22 be3b 8b80 fc3c
000000b0: 22b9 6bbc f81e 5c3d da29 47bd 31d5 c83c
000000c0: 7e02 a1bc 842b 2f3d 80dd 0d3c 1357 883d
000000d0: 907d 28bd 55a8 bc3c dde3 ea3c 3737 3ebd
000000e0: d2ba 403d 319b 88bd ef20 873c 10e8 0f3d
000000f0: 2320 36bd bcc8 29bd 1fd9 18bd 66dd 773d
00000100: df9f 69bd 9352 fd3c a08d 46bd 26bb 8bbd
00000110: 1473 1b3c 3431 d4bc 8493 943c 4e1b 6f3d
00000120: b271 783d c075 933a d05b 4ebd 3e8f 36bd
00000130: 899f ffbc 5908 343d 8f70 55bd 96de 1b3d
00000140: 804a 833b 2df0 37bd 9494 30bd d803 f5bc
00000150: 080a c9bc ab23 40bd 2b26 58bd fb59 95bc
00000160: e1c1 39bd 6744 ac3c 601a 463d 2ad1 80bc
00000170: 1fa0 75bd fd6d 6bbd e9b8 4e3d c0fe e13c
00000180: a816 5e3d fb07 063d 7d28 34bd 541e 923c
00000190: 182b d6bc 4dcb 0e3d 2c9f 49bd 56b4 f53c
000001a0: 2c57 5cbd fe7b 183d dca6 de3c 2109 19bd
000001b0: 1d3f 43bc 47b8 0bbd 62cf 163d eb80 80bd
000001c0: 80a4 3b3b 07c1 1ebd c274 6abd d834 dfbb
000001d0: c6a7 3c3d 4a49 65bd 0c83 023d 3c68 ca3c
000001e0: 9ed7 2cbd 47af b3bb a316 c93c b2a1 593d
000001f0: a808 c33c caed 5bbc 1226 88bd da15 abbc
00000200: 4276 4dbd 8fb7 dd3c 4bf2 2abd 39fb 73bd
00000210: 301b 233c 1053 f83c a0ca a63a 827c 74bc
00000220: 3f1e 10bd fcff e33c 1866 cebc e1a3 99bd
00000230: c07a 9fba f6c2 87bc ba8e 5abd f298 d9bc
00000240: b0ef 79bd 7035 813d de81 8bbd 5107 43bd
00000250: 7e75 83bc 8662 3d3d 9064 afbb 6214 52bd
00000260: 1024 ee3c a4d6 103d 9a73 133d 3054 98bb
00000270: a3da 6d3a c656 61bd a62e a7bd 556b 8dbd
00000280: 0492 323d 39d7 c93c 8342 e13b cd6a f2bc
00000290: ee57 9d3c f734 913c 2a7e 7fbc 354a 783d
000002a0: f92f 423c 6825 943c b4e4 56bd 8b83 d13c
000002b0: 3b56 a73c d87a a43c 620c 50bd 5c62 ea3c
000002c0: 0584 27bd 28f3 1abd 17c1 84bc b98b 453c
000002d0: dd68 12bd 4f2b c1bc ec91 05bd 9b93 75bd
000002e0: 525b e53a 815a b1bc 012f 1fbd 62ab 95bd
000002f0: 5f0f 0fbb a00c e7bc 976f 70bd 63bd ce3b
00000300: f2d3 de3b 4b15 a1bd 25f0 7ebd 8410 2cbc
00000310: cd71 8d3c 7d51 143a 31d5 ebbc beb0 34bd
00000320: e0c5 85bd 268d 3e3d 72d2 4bbd bb14 5b3d
00000330: 12b9 783c 1b99 49bd 6d16 7bbd c418 b53c
00000340: c092 c43b e480 7ebd 8271 a8bc f84c 78bd
00000350: 2083 84bc 78d8 6d3c 4a7f 7f3d 9c1f b63c
00000360: b8b6 7c3c 746e f73c 489e b03c 233c 8b3d
00000370: 708e 80bb 80f4 4dba ce9b 71bd 964d b9bc
00000380: 545f 053d 31ea 13bd bcee 66bd 947d 273d
00000390: 3e2a 513d 3091 953c e073 b43b 5c76 e2bc
000003a0: 78e4 1b3c a8c8 83bd e170 fcbc 7052 89bb
000003b0: 5f6c 5cbd 6c81 473d 443e c83c d8fa 01bd
000003c0: c3a4 5bbd 309f 363c 049f 61bc 511f 2c3c
000003d0: a350 f03c ff6d 0e3b 8fe1 5e3d 5cf0 563d
000003e0: 9c13 2d3d 9a4d 4cbd 9558 8abd 98bb 2f3d
000003f0: 8bd9 10bd 5fa6 893c 84f8 bc3c 0167 0ebd
0.055936582 0.016931593 0.06471307 0.041619696 -0.0028983504 0.0012514591 0.046074815 -0.014432553
-0.041894086 -7.57128e-05 -0.031700827 0.042205103 0.05194038 0.056012265 -0.024060946 -0.0053878054
0.040949628 -0.026547924 0.05599744 -0.06730025 0.05146204 0.013268597 -0.01238656 0.0081622
0.05689811 0.06230261 0.056714483 -0.010496826 -0.025815915 -0.040896237 -0.037295688 0.027685098
0.023411162 -0.053576052 0.03309208 0.034085818 0.027119152 0.01315138 0.04955645 0.04721094
-0.05985732 -0.031112116 0.0058024204 0.030823013 -0.014387401 0.05374047 -0.048623897 0.02451572
-0.019654509 0.04276611 0.008658767 0.06657233 -0.04113537 0.023029486 0.028673107 -0.046439376
0.047053166 -0.066702254 0.016495196 0.03513342 -0.04446424 -0.0414512 -0.037316438 0.060513876
-0.05703723 0.030923164 -0.048474908 -0.06822805 0.009487886 -0.025902368 0.018136747 0.05837565
0.060655303 0.0011250302 -0.050380528 -0.0445702 -0.031204002 0.043953273 -0.052109297 0.03805407
0.004006684 -0.044906784 -0.043110445 -0.02990906 -0.024540916 -0.046909016 -0.052770775 -0.018231383
-0.045350913 0.02102871 0.048364997 -0.015724737 -0.059967156 -0.05747794 0.050469313 0.027587295
0.054220825 0.032722455 -0.043983925 0.017836727 -0.026143596 0.03486185 -0.049224064 0.029993217
-0.05379407 0.037227623 0.027179174 -0.03736222 -0.011916903 -0.034111287 0.03681887 -0.06274589
0.0028631985 -0.038758304 -0.057240255 -0.0068117194 0.04605844 -0.055978097 0.031863257 0.024707906
-0.042197816 -0.005483541 0.024546927 0.05313272 0.023807839 -0.013423393 -0.06647886 -0.020884443
-0.050161608 0.027065067 -0.041734975 -0.059565756 0.0099552125 0.030313045 0.0012725182 -0.014922263
-0.035185095 0.027832024 -0.025195166 -0.075019605 -0.001216732 -0.016572457 -0.05335877 -0.026562188
-0.0610196 0.063090205 -0.068118796 -0.0476144 -0.016047236 0.046236537 -0.005352564 -0.05128897
0.02906993 0.035360947 0.035998918 -0.004648708 0.0009073412 -0.055014394 -0.08163194 -0.069052376
0.043596283 0.024638759 0.006874384 -0.029591942 0.019206967 0.01772545 -0.015594045 0.060617644
0.011852258 0.018084243 -0.052464202 0.02557542 0.02042686 0.020078108 -0.05079306 0.028611355
-0.040897388 -0.037829548 -0.016205354 0.012057238 -0.035744537 -0.023580221 -0.032609865 -0.05995522
0.0017498529 -0.021649601 -0.038863186 -0.07308079 -0.002182923 -0.028204262 -0.05870017 0.0063091977
0.006800168 -0.078653894 -0.06224074 -0.0105019845 0.017266179 0.00056578947 -0.028788181 -0.044113867
-0.06531882 0.04652133 -0.049761243 0.053486567 0.015180843 -0.04921828 -0.061300684 0.022106536
0.0059989393 -0.06213464 -0.020561937 -0.060620278 -0.016175807 0.014516942 0.06237725 0.02223187
0.015424423 0.030204035 0.02155985 0.067985795 -0.00392323 -0.0007856563 -0.058986478 -0.022620004
0.032561615 -0.036112014 -0.05638002 0.040891245 0.051065676 0.018257707 0.0055069774 -0.027644329
0.00951492 -0.064347565 -0.030815544 -0.0041907355 -0.05381429 0.04870741 0.024443753 -0.031733364
-0.053623926 0.011146352 -0.013770822 0.010505513 0.029335326 0.0021733043 0.05441433 0.05247532
0.04225503 -0.049878694 -0.06755177 0.042903513 -0.035363715 0.016802965 0.02306772 -0.0347662

net.0.bias f4 [256]
00000000: 0744 e8bd 0f32 8b3e 85d8 263d 950d 1cbd
00000010: ec10 013c d02c 323e 0cc3 a4bc d629 343d
00000020: 26b3 aabd 286e b03e 0c95 ba3d b931 bd3d
00000030: 642a 623e 8b9a 5a3c ce9f f4bc 4289 da3d
00000040: ef59 5f3e 5d36 443e 2a64 393e 3d09 a73d
00000050: e451 6dbc 60a1 303e 373c 443c cefa a8bd
00000060: edcb dbbc a110 ef3c 3833 c63d d5fd 823c
00000070: dd09 41bd 81d1 0e3e f8ae 813d e88c ac3c
00000080: 80cb d43d bbeb e03d 9330 1b3d 29a8 083c
00000090: 66a8 973e 3aba eb3d 44af df3d c02d b0bb
000000a0: 70fe d53c 5600 863c c422 143e 0f5d 9c3e
000000b0: f2a9 ff3d 953c 0c3d 498f 7f3e a4ed 793e
000000c0: 9d0a 5e3e d241 05be 899f 323e d569 a43d
000000d0: 502b 17be 0fac 323e 69a4 6ebd 5b86 893b
000000e0: 68cf 403e aaff 933e c8e1 363e b36f d0bd
000000f0: ceb8 263e 29de c1bc 92ce e03d b5fc ee3d
00000100: 5346 c93d 5a87 97bd f028 9b3e 48b2 383d
00000110: e483 023d 6ab8 64bd e72a 603d 2f7d 813e
00000120: 56c4 533e c7c0 61be 9241 a83e 79c6 653d
00000130: 48ce 7f3c 7ef8 2d3e ea69 0e3e 9e02 5c3e
00000140: 1b46 513e 7f28 d2bd 4e71 0abe 6c4c 6cbd
00000150: 3d66 683d 4cc8 783d 62b0 283e f270 b9bd
00000160: 0f77 353e d30e eebb 4e95 0dbd adb1 8cbd
00000170: 596f 583e f62a 0a3d 68ca 523e 5451 fdbd
00000180: 8859 6a3e a379 29bd 0c8f 903e eb19 ae3e
00000190: 1d4a 093d 5dd2 653e dd39 6c3e 543a dc3d
000001a0: 45f0 113e cfa9 493e 5953 9b3e 649e 663e
000001b0: 3947 5b3e e04f debd 35d9 01bd d30a 4b3e
000001c0: 37cf de3d fb39 9ebd b6bc b83c 657e 243e
000001d0: db65 bcbc 33ad a43d d994 adbd e2f7 053c
000001e0: 121d de3d efd1 fbbc ca48 d03d a24e 18bd
000001f0: 26e0 8c3e f6ae b3bd e0f0 813d 4bab 593c
00000200: 2bc0 9938 216f 3c3e 1be7 173e d683 133d
00000210: 74b6 353e 51bf 11bc 0302 293e 761d 943e
00000220: ccf1 5c3e 32dd b13e 78ad a63d fcc4 a03e
00000230: d706 5a3d 2d19 e33d cb67 fb3d 2026 31bd
00000240: 668a 773e 1b02 e93d 6c20 c23c 5b93 b03d
00000250: b65d 903d 5762 a13e 2e61 ba3c 08a7 9b3d
00000260: 130e 093e df15 df3d 6313 403d 84f4 b33e
00000270: 8ee6 363e 7ed3 1dbc 0619 423e 5d78 163e
00000280: e183 933e 49ca 1f3d 4a4c 843c 4a78 003e
00000290: a50f 133e 34e2 b7bc aeb0 af3e a93d de3c
000002a0: c1f3 303e a387 26bd 38db 823d 96ed 8b3e
000002b0: 324f 4f3d 13d8 843d db28 6a3e df2e 8e3d
000002c0: ab74 a83e 3d61 223e 3bef 5bbd b37b 39bc
000002d0: 1809 0bbe 1005 293e 9af8 1dbd fe3f 0e3e
000002e0: ebed 973c 6a4b 953d 3e69 9b3e 7db4 2f3e
000002f0: 9b12 803e 6288 e93d 5222 e43d b615 bf3d
00000300: d77f d43d ba11 283e 5be5 c03d 6d8f 2ebd
00000310: e56b feba cc7c 6bbb 2d8e 9a3d 3b5d fc3d
00000320: 3eaf 0f3e fc67 6e3e 2393 c43d b856 47bd
00000330: 23f1 1a3d d780 b1bd 17c2 553c 9970 993c
00000340: e0d1 2d3e f7c7 6a3e 21b4 aa3c 7e4d afbc
00000350: 5690 cabd a430 e03d 0368 c23d 1ffa 82bd
00000360: 4df1 193e 9e50 993e 0952 d83d 5ea0 933d
00000370: 266c 63bd 3870 6d3d f928 9d3d d2a5 953d
00000380: 6c0e 23bc 11ac 93ba 0e87 11bd 65e9 f4bd
00000390: d2a8 e93e b321 eb3d 51d7 933c 0496 80bb
000003a0: 3702 0bbe d58c dbbd f069 963c 825b 223e
000003b0: 1b20 803d 2e60 853d 06d9 6c3e 355a 1c3e
000003c0: 98c3 923e 4f4e 72bd f87c 3ebc fab7 6fbc
000003d0: c854 553e b174 233e c4f8 a7bc 3e96 bf3d
000003e0: 2921 1e3e 71a9 e6bd 2936 423e 83b9 923e
000003f0: a76b 7f3e 9d70 04bc 9bce 05bd 8411 5c3e
-0.113411 0.2718663 0.040733833 -0.03809889 0.00787757 0.17399907 -0.020112537 0.04398521
-0.08334951 0.34459043 0.0911046 0.092379995 0.22086483 0.01334251 -0.029861357 0.10670711
0.2181165 0.19161363 0.18104616 0.08156059 -0.014484856 0.1724906 0.011977247 -0.08250962
-0.026830638 0.029182734 0.09677738 0.015990177 -0.047128547 0.13947107 0.06332201 0.021063283
0.10390377 0.10982462 0.03788812 0.008340874 0.29620665 0.11510129 0.10922101 -0.0053765476
0.026122302 0.016357582 0.14466387 0.30539748 0.12483586 0.034237463 0.24957003 0.24407059
0.21683736 -0.1301339 0.1744367 0.08027998 -0.14762616 0.17448448 -0.058262262 0.0041969246
0.18829119 0.28905994 0.17859566 -0.10177555 0.16281435 -0.023665505 0.109769 0.11669294
0.098278664 -0.07398863 0.3030467 0.045091897 0.031864062 -0.055839933 0.054728415 0.2529082
0.20680365 -0.22046195 0.32862526 0.05609748 0.015613146 0.16989323 0.1390759 0.21485373
0.204369 -0.1026163 -0.13519785 -0.05769007 0.056738127 0.060737893 0.16473535 -0.09054746
0.17721198 -0.007264951 -0.034566216 -0.068698265 0.21136226 0.033732377 0.20585024 -0.12369028
0.22885716 -0.041375767 0.28234136 0.3400415 0.033517946 0.22443528 0.23068948 0.10753313
0.14251812 0.19693683 0.30337027 0.22521359 0.21413888 -0.10855079 -0.031701285 0.19828348
0.10879367 -0.07725903 0.022550922 0.1606384 -0.022997787 0.08040848 -0.08475656 0.008176776
0.108453885 -0.030739753 0.101701334 -0.037184365 0.27514762 -0.087736055 0.063447714 0.013285468
7.3314026e-05 0.18401767 0.14834253 0.0360144 0.17745382 -0.008895711 0.16504674 0.28928727
0.21576613 0.3473907 0.08138555 0.31400287 0.05322918 0.11088786 0.12275656 -0.04324925
0.24173889 0.11377355 0.0236971 0.08621856 0.07049124 0.3152034 0.022751417 0.07600218
0.13384275 0.108928435 0.04689349 0.35147488 0.17861387 -0.009632943 0.18954858 0.14694352
0.28811553 0.039011274 0.016149659 0.12545887 0.14361437 -0.02244673 0.34314483 0.027129011
0.17280485 -0.040656697 0.06389469 0.273297 0.050612636 0.064865254 0.22867148 0.06942534
0.3290151 0.15857406 -0.053694945 -0.011320996 -0.13577688 0.16505837 -0.038567163 0.13891599
0.018546065 0.07289775 0.3035373 0.17158695 0.25014195 0.11402966 0.111393586 0.09330313
0.10375946 0.16413012 0.09418746 -0.04261725 -0.0019410817 -0.003593254 0.07546649 0.1232247
0.14031693 0.23281854 0.095983766 -0.048666686 0.037827622 -0.086671524 0.013046763 0.018730449
0.16974592 0.22927843 0.020837845 -0.021399256 -0.09890811 0.109467775 0.09492495 -0.06395363
0.15033455 0.2994432 0.10562522 0.07208322 -0.05552306 0.05796835 0.076738305 0.07307018
-0.009952169 -0.001126649 -0.03552919 -0.11958579 0.45636612 0.11481037 0.018047007 -0.0039241333
-0.13575064 -0.10720221 0.018361062 0.1585522 0.06256124 0.065124854 0.23129663 0.15268786
0.2866485 -0.059156712 -0.011626475 -0.014631266 0.20833123 0.15962483 -0.020504363 0.09354828
0.15442337 -0.11262787 0.18965973 0.2865716 0.2494341 -0.00808349 -0.032667737 0.21491057

net.2.weight f4 [256, 256]
00000000: f076 aa3c 3235 f93f c91e 923d 2733 33bc
00000010: 9ad5 9dbd 86e5 ddbd fc8a 883f f6c0 c33c
00000020: cafa 753c 3ebf 523f 09b8 b73d 4f8a c0bb
00000030: b9a7 3a3f 391e b83d 33df d13c 29f1 13be
00000040: da3f 1bbe adff 5b3f 00f4 b33e e0ae cd3e
00000050: 7182 943c 4708 a23f c8a3 593f 47de 833f
00000060: 3357 b73f 24f5 aa3f bb2a ff3c 4a54 2e3f
00000070: 9fbd 1ebe f2cf c33f cde0 c13f 62aa d83f
00000080: c042 563c c2c2 7e3d f3de 20be 5a40 4bbd
00000090: 6802 0940 84e0 873f bf18 bb3f 7f1a a43f
000000a0: ef8e cf3e 6fa3 093f c48e aebd 0875 ae3e
000000b0: 9e33 c83e 58e2 113f 461a 65be 682a 44be
000000c0: c9a5 be3c 09b9 e23e a9e0 8cbd f8cc c93e
000000d0: a727 7abe e46b 5dbe 9551 383d 8b4f ce3e
000000e0: 9e57 63be c7cc 703f deac f43c 15c2 ad3f
000000f0: 40f9 673c 64ea a43f 8548 3c3f 31db 5e3e
00000100: 405c ecbd 3da5 283f c7d0 9b3e faac 303f
00000110: 15ed 903e b793 d83d c9b2 523f b75d b23a
00000120: 72e2 843e eb02 463f 72e8 253e 50d3 2f3f
00000130: 2066 bd3d f135 303d a3ce b03f 9bfc 6ebc
00000140: fe32 21be 0f69 983f d035 5c3f 0d2c 9c3f
00000150: dc09 96bb f543 bc3e f114 f73c fdf2 db3b
00000160: d998 113e 3f32 8ebe 4fd3 063f 59e4 b53f
00000170: c670 a4bb 5282 9ebd deed 0e3e 584d fd3e
00000180: 26f1 513c 2c0e a43f 9b05 79be a6e2 b13f
00000190: 705b da3f 09ef 03be 485f 2abe 0afe 9cbd
000001a0: e02d 923e dee0 c0bb f071 be3e 24f3 b13e
000001b0: 0fa3 903f b520 7d3f fd9e 763f a4fe 1f3f
000001c0: f25a 993f 39dd 5cba f305 08bd a1de 1cbe
000001d0: 4e41 943f 5c95 c6bd 0c5b a23f 1417 3d3e
000001e0: afaf b03f 4189 9b3e 96a2 213e 5122 ab3c
000001f0: 4259 df3e e14a 7bbd 7c76 353f 99ed 2f3d
00000200: 5b64 1abe 9436 12be 6958 2fbe 6624 213f
00000210: ee43 843f 41f2 493f 71e7 23be 1ff1 2d3e
00000220: 8ed3 853c 451e 573f dfe0 dcbd adf6 053f
00000230: b3af 7a3d 3cc4 223f 2b71 39be b100 56be
00000240: 9e83 0e3f 1679 163f 3de1 a53f bd31 ad3e
00000250: 7f64 76bd 4972 c93e 374e b73d d8e4 47be
00000260: 7747 e1bd 3af5 3a3f 89b7 983d f4e6 243f
00000270: 3bbb ba3f 828c 763e 6fc5 cc3f 4153 543f
00000280: 3d54 bdbd e5f3 6bbd 30e3 a83e 7caa a2bd
00000290: 5393 65be 6eaa 7fbd cf05 d13e e9e0 e7bd
000002a0: 0829 7d3f 59fd 8c3f 0206 b43f 39c8 84bd
000002b0: 7384 693e 945f 763f 7db4 4a3f ad94 a23e
000002c0: 73b1 833e b1e9 9b3e 742c 69bd eeba b6bb
000002d0: 1831 da3e 576e 02be 5a9b 883d 57e5 fb3e
000002e0: 4927 3b3f 01ca db3e e772 3b3f e61e b43e
000002f0: eb10 b73c 3bf4 e73c 9d90 223f 4b6c 5c3f
00000300: 609e d33c e60f eebd 3e70 81bd 36f1 973f
00000310: b9b7 6a3f c83d a23f 1493 213f d55b 803f
00000320: e5e2 163e cad7 4fbe 54aa 0a3f 8b1c ae3f
00000330: 0aa2 803d 48b7 743d 274e ad3e b195 aa3f
00000340: a6a5 02bc dd3d 543f 37cf b03d b293 bf3f
00000350: 7e5a 4cbd eb4e c03f 4987 943e 9288 663d
00000360: 5505 df3f ff3a a13e 80d8 f53e eefa 863e
00000370: 8dc8 0f3d 16f3 b33f 62f9 8e3d 4ff0 723f
00000380: b900 ebbd febe 213f eecd 4d3d 51d1 483f
00000390: b22c ec3f 0d9c e53a 3c19 9e3b f4be 053f
000003a0: e3c6 b63d 41e2 c63f 7454 a43f b6cd ac3e
000003b0: 268b 323d f6eb c33e 532b c43d 9b70 553f
000003c0: dfa7 94bc b9ba e0bb daa2 15bc f6cb c23f
000003d0: f586 37be e5bc b03d d3ea 453d 1d7f a83e
000003e0: 41c5 f2bd ba67 ddbd 169e b23f 27a6 963f
000003f0: 6b0c a0bc ef74 c23f ed1c c5bd 1ac3 0bbe
0.020808667 1.9469359 0.07134778 -0.010937489 -0.07706757 -0.10834794 1.0667415 0.023895722
0.015013406 0.8232306 0.08970649 -0.0058758627 0.72912174 0.089901395 0.025619125 -0.14447464
-0.15161076 0.85937005 0.35147095 0.40172482 0.018128606 1.2658776 0.85015535 1.0302209
1.4323486 1.3356061 0.031148305 0.68097365 -0.15502022 1.5297835 1.5146729 1.6926997
0.013077438 0.062197454 -0.15710048 -0.049621917 2.1407719 1.0615392 1.4616927 1.2820586
0.40538737 0.53765005 -0.08523324 0.34073663 0.3910188 0.56986 -0.22373304 -0.19156802
0.023272412 0.44281796 -0.06878788 0.3941419 -0.24429189 -0.21623188 0.044999678 0.4029506
-0.22201392 0.94062465 0.029867586 1.3574854 0.014158547 1.288403 0.73548156 0.21763302
-0.11541033 0.65877134 0.30432722 0.6901394 0.2830588 0.10575049 0.82304054 0.0013608251
0.25954014 0.773482 0.16201952 0.6868181 0.092479944 0.043020193 1.381306 -0.014586593
-0.15742108 1.1907061 0.8601961 1.2200943 -0.004578812 0.36770597 0.030161353 0.006712316
0.14218463 -0.2777271 0.5266618 1.4210311 -0.0050183265 -0.077397004 0.13957927 0.4947307
0.012813842 1.2816825 -0.24318545 1.3897293 1.7059155 -0.12884153 -0.1663791 -0.076656416
0.28550625 -0.0058861813 0.37196302 0.34755814 1.1299762 0.9887803 0.96336347 0.62497926
1.1980879 -0.0008425299 -0.0332088 -0.15319301 1.158243 -0.09696457 1.2684035 0.18465835
1.3803614 0.30378154 0.15784678 0.020890387 0.43622786 -0.061350707 0.7088392 0.0429512
-0.15077345 -0.14278632 -0.1712357 0.62946165 1.033323 0.78885275 -0.16006257 0.16986512
0.016336229 0.8403056 -0.10785078 0.5232952 0.061202716 0.6358068 -0.18109576 -0.20898701
0.5566958 0.5877851 1.2959362 0.3382701 -0.060154434 0.39345005 0.08950465 -0.1952089
-0.10999959 0.73030436 0.074568816 0.64414907 1.4588388 0.24077037 1.5997752 0.82939535
-0.09244583 -0.057605643 0.3298583 -0.079426736 -0.22419481 -0.062418394 0.40824744 -0.11322195
0.98890734 1.1014816 1.4064333 -0.06483502 0.22804432 0.9623959 0.79181653 0.31754056
0.2572132 0.3045173 -0.05692716 -0.005576483 0.4261558 -0.12737404 0.06670256 0.4919841
0.7310682 0.42927554 0.732222 0.35179824 0.022346934 0.0283147 0.6350191 0.8610274
0.025832355 -0.11624126 -0.063202366 1.1870487 0.9168659 1.2675104 0.6311505 1.0028025
0.14734991 -0.2029716 0.5416615 1.3602461 0.062809065 0.059745103 0.33848688 1.3326932
-0.007974064 0.82906896 0.08633273 1.4966948 -0.049890988 1.5024084 0.29009464 0.056282587
1.7423502 0.31490323 0.4801674 0.2636332 0.03510337 1.4058559 0.0698116 0.9489793
-0.11474747 0.63182056 0.050245218 0.7844439 1.845114 0.001751782 0.0048247855 0.52244496
0.089246534 1.5537797 1.2838273 0.33750695 0.043589734 0.3826596 0.09578576 0.8337495
-0.018146453 -0.0068581966 -0.009133065 1.5218494 -0.17922576 0.08629779 0.04831965 0.3290948
-0.118540294 -0.108108 1.3954494 1.1769456 -0.019537171 1.5191935 -0.09624658 -0.13648644

net.2.bias f4 [256]
00000000: f718 c73f 66cc 79bd 67aa 5a3c a98b b83c
00000010: dd4b 9abd 280d 62bd 2392 1c3d 2a53 863d
00000020: 30ee 3b3d 2c02 b03e 1583 cbbd 21a8 313d
00000030: 24e4 95bd eceb 393c 1c46 123e a2ae bcbc
00000040: 078e 0fbb e26e 253e 971e eabb 3eb3 d03d
00000050: 7163 353e 92ed 033e 11dc 91bd eb4f e43b
00000060: 2cea 67bd 0336 bebd 1a48 bb3d c26c 663c
00000070: c5bb 34bd 44e5 623c d432 113c 8bae 153e
00000080: bc61 2f3d 5c62 b33d 54f5 dfbc 81ce 033e
00000090: ce72 24bd 5f7f f2bc a34b 00bd b640 45bd
000000a0: 43fa 993d 6cef b0bd 5cba d23c fb54 09bd
000000b0: f4e1 b63c 4c4a ffbc 54f1 3dbd 0f0c 86bd
000000c0: be10 b43d 855b c2bc 208a 81bd 6ac3 8ebc
000000d0: e904 b1bd 9d46 b13b c5dd bf3d 6778 d5bd
000000e0: f8cf 233c d8ce cfbc a03a 363d 8a6c 243d
000000f0: 1e0b ec3d 17d2 3e3d 9417 7dbd 0734 2a3e
00000100: 637c 9dbc b77a 603d b62b 82bb b7cd 253c
00000110: f688 88bd 725b 16bd dd7f 273d 8cdb 04bd
00000120: 65da c3bd 1a65 87bd d6be cbbc e067 a5bd
00000130: 8d07 473c f1fb 72bd 521d 22bc 14ab afbc
00000140: 8ff2 a0bd de2d f23b 8550 323e 66ab 53bd
00000150: 9d8d 353d 220c 693d 8305 4dbc 913d ce3b
00000160: 5fe8 b6bd 87b6 7e3e 927b c6bb 31f6 aa3c
00000170: eab3 03be 0a68 5f3c d4d6 943c d392 dcbd
00000180: ceff 393d 519e 2ebd 1977 203e e1de 07bc
00000190: eded bb3e ddae eb3c aaba d53b ec6f 53bd
000001a0: 9bfb 9dbd 0d8e 8e3c 25f5 24bd 130a 9dbd
000001b0: 6c99 5bbd 01c1 6bba 5601 94bd 2f3a eebc
000001c0: c9f3 c73d 8670 6cbc 2ec9 013e 490b 75bd
000001d0: e47f 47bd 50f2 483d b29b 88bd 7076 d13c
000001e0: 07c2 433e 149a 063e 3168 05bd 6840 bebc
000001f0: 0356 7c3c 4417 963d 750f 32bd 2458 07be
00000200: 654d cdbd 9a0d 1c3c 14ef 9abd 27ba 3dbd
00000210: a631 f0bc afee 813d 2dcd 19bc dc98 333d
00000220: 76b4 24bc f3d4 37bd abd5 c1bb 5c75 19bd
00000230: 2443 983b b7f6 633e 10fa 9d3b 5efe fabc
00000240: 1f5e bb3e 7c2f 543d 716c 8c3d 9849 a0bc
00000250: ca34 efbb 8230 39bd 7fcb bdbd 7f0d 03bd
00000260: 4425 383e 7453 69bc b3ec 96bd 66ef ee3c
00000270: 8245 c33d b479 0a3d 1313 1e3d cb87 ba3b
00000280: 0671 463e 8425 e73d 0b46 173c a5fd 5e3e
00000290: 5f8c 31bd f2e3 28bc 2a32 27bd 9598 3a3c
000002a0: 40b6 b53c 00cd 80bc 9eee f3bc 0e19 173d
000002b0: adde 203c faaf 433c 20d4 2c3d db19 823a
000002c0: b2d8 5c3c da0b 5bbd feb4 26bd 4a13 04bd
000002d0: f0fa 25bd ca7c 273d 98d6 b43b e598 9bbc
000002e0: 217b f73f 2a17 43bd 4932 103e c7b3 2bbd
000002f0: c971 22bc e492 28bd d247 68bc 319a e03c
00000300: 2c84 b73d 6d3d 8dbd f919 54bd 379e 113e
00000310: 0d25 053d 5033 aa3c e0b9 c43d fd49 483e
00000320: e6a1 e0bc ea67 553e c1a2 21bd eb59 c83c
00000330: dd0d a3bc d1b2 9dbc e14b 42bd 88de 31bd
00000340: f97f 47bd 3f7f 30bd 947f 3b3e 8226 cb3d
00000350: 7b81 93bc b739 073c 03be 0fbe 3175 90bc
00000360: bada 083e 37d3 58ba 2481 8bbc 5bda 37bc
00000370: 45bd 92bc 4b88 693b 0552 133d 6a89 62bd
00000380: cfd4 88bd 49c7 83bd 521f 2bbc 0df3 9a3d
00000390: aa85 a33d 5ac3 98bc e7fc 073f 7707 36bd
000003a0: dbdc 90bd 1d26 13bd 1f0b 593c ada8 203d
000003b0: d55c 1fbc eb75 8bbd bf5a 7c3c e9c5 dfbd
000003c0: ef1e ab3c 2aec bc3d 0152 04bd 21c8 5cbd
000003d0: c9ef 62bd bd3a 99bd 18ef 9b3c cc63 8b3d
000003e0: ee05 c53d a4ce 0f3e 414e 013e 4755 e3bc
000003f0: f75f 27bd 0cda 8bbd 8962 083e 60b1 ae3d
1.5554494 -0.060985945 0.013346291 0.022527533 -0.07534001 -0.055188328 0.038225304 0.06558831
0.04588145 0.34376657 -0.09937111 0.04337323 -0.07318905 0.011347752 0.14284557 -0.02303249
-0.0021904723 0.1615558 -0.00714476 0.10190438 0.17713715 0.12883595 -0.071220525 0.006967535
-0.056619808 -0.09287646 0.09144612 0.014064016 -0.044124383 0.0138486065 0.008862216 0.14617364
0.042817816 0.08758995 -0.027338661 0.12871744 -0.04014855 -0.02960175 -0.031322133 -0.048157416
0.07518437 -0.08639416 0.025723629 -0.03352831 0.02232454 -0.031163357 -0.046372727 -0.06545269
0.08792256 -0.02372528 -0.063251734 -0.017427165 -0.08643515 0.005410029 0.09368471 -0.104233555
0.009998314 -0.025367185 0.044489503 0.040142573 0.11525558 0.046587076 -0.061790064 0.1662141
-0.019224351 0.05480453 -0.003972496 0.010119847 -0.06666748 -0.036708303 0.040893424 -0.03243594
-0.0956314 -0.066110805 -0.024871271 -0.08076453 0.012147796 -0.0593223 -0.009894686 -0.021443881
-0.078587644 0.0073907217 0.17413528 -0.05167713 0.044324506 0.056896336 -0.012513521 0.0062939604
-0.0893104 0.24874316 -0.006057211 0.020869346 -0.128616 0.013635645 0.018168844 -0.10770192
0.04540997 -0.04263145 0.15670432 -0.008292885 0.3670496 0.028769905 0.006522496 -0.05162041
-0.077140056 0.01740172 -0.04027285 -0.07667937 -0.05361311 -0.00089932984 -0.07226817 -0.029080478
0.09763295 -0.014431125 0.126744 -0.059825215 -0.04870595 0.049059212 -0.066703215 0.02556917
0.19116984 0.13144714 -0.032570068 -0.02322407 0.015401366 0.07328656 -0.043471772 -0.13217217
-0.100245275 0.009524727 -0.07565132 -0.046320107 -0.02932055 0.063443534 -0.009387297 0.04384695
-0.010052791 -0.04488082 -0.005915364 -0.03746544 0.0046466757 0.22262083 0.0048210695 -0.03063887
0.36595246 0.051803097 0.06856621 -0.019566342 -0.007299994 -0.045212276 -0.092673294 -0.031995293
0.17982966 -0.014241088 -0.073693655 0.029166888 0.09534742 0.03380747 0.03859241 0.0056924573
0.19379053 0.112864524 0.009233008 0.21776445 -0.04334676 -0.010308253 -0.040819325 0.011388917
0.02218163 -0.015722752 -0.029776867 0.03688913 0.009818715 0.011943812 0.042194486 0.0009925918
0.013479399 -0.0534781 -0.04069995 -0.032244958 -0.040522516 0.040890492 0.0055187456 -0.018993804
1.9334451 -0.047629513 0.14081682 -0.041919496 -0.009914824 -0.04115571 -0.01417728 0.027417274
0.08960757 -0.06896482 -0.051782582 0.1422051 0.032506038 0.02077642 0.09605765 0.19559474
-0.02742095 0.20840421 -0.039461855 0.024456939 -0.019904071 -0.019250305 -0.047435645 -0.043425113
-0.04870603 -0.0430901 0.18310386 0.09919454 -0.018006077 0.008253506 -0.14037327 -0.017634006
0.13364688 -0.00082712196 -0.017029352 -0.011221494 -0.017912516 0.0035634215 0.03596689 -0.05530683
-0.06681215 -0.06434495 -0.010444479 0.075658895 0.07984479 -0.018647838 0.53120273 -0.044440713
-0.07073375 -0.03592502 0.01324728 0.03922336 -0.009726723 -0.068096004 0.015402495 -0.1092642
0.020888774 0.09224732 -0.032304768 -0.053901795 -0.05540446 -0.074819066 0.019034907 0.06806144
0.096202716 0.14043671 0.12627508 -0.027750624 -0.040863004 -0.068286985 0.13318838 0.08529925

net.4.weight f4 [40, 256]
00000000: 7772 2bbe 76e1 3d3e 7732 843d f42c 393e
00000010: 7604 44be e6de bdbb 3eeb 453f de84 1d3e
00000020: bbe6 5abf c869 103e 26aa f53c 61f1 5f3c
00000030: 3419 8fbc 733e d5bd b6a7 083e 432c 41bd
00000040: a1b8 0d3d 6af6 303e 2acb 483e d1a8 533e
00000050: 15d1 123e 573b babe d8a4 76bd 8e71 793e
00000060: 71f6 bc3c b6de b9bc aa3b 373e 536a f9ba
00000070: 7142 b3be a4a5 dcbd d001 e4bb db2f 263e
00000080: 66a8 15be 24dd 3abe 6f3c 4d3e 0085 e33d
00000090: 94d6 5c3c 0e7c c7ba 788f 623e d467 563d
000000a0: 3021 f43d 0682 8ebe 01d8 8c3b 5f5b 5d3c
000000b0: 81b7 e6bd dc5b 7bbd e331 8e3c df7e 083d
000000c0: 2a90 5fbe 9e33 b43b 0611 ca3c d1f3 1bbe
000000d0: 466c 3c3e 5199 f4bc 3c62 b1bd f8b9 ffbe
000000e0: 40f5 90be 621e 433e 2126 743e 1848 a8bd
000000f0: 775b 77be a95f d1bd 4ce2 b13b 71e5 a23d
00000100: 7449 0d3d 978b fa3d 94a4 44be 0877 583e
00000110: b4cf 7dbe 52a6 a5bc d801 e93d 2d80 f83b
00000120: a7ac 9b3e 233d 303d 9231 89be 3633 563e
00000130: 9cee 1e3e 286f 35be 2dc6 bcbb 186b 423b
00000140: 5af3 1bbd b90f 703e 5720 433e 996e 193d
00000150: bafb ffbe 323f 7c3a 4195 453e c0af f33d
00000160: a1ff 7abb dc96 e2bd 2242 3b3d 9a3f 313d
00000170: 7495 38bf cf31 053e c272 663e 5574 5c3e
00000180: 269b 413e 1254 723c 465c 4cbc cf10 763d
00000190: aa4f 763e 37d6 133e 12da 893d 8fb6 4cbd
000001a0: fb4e 213e 897a 2a3e e4ee 123e 6a65 45bf
000001b0: fef2 303d 3171 4fbd 12a8 013c 302d ec3c
000001c0: b88d 6dbe a914 453e 0610 263e 036c 9ebe
000001d0: cc30 833e d01b 3b3e 7086 c7bb bf07 f93b
000001e0: 9408 523d dad9 4d3e d517 593d 9e1a 583d
000001f0: dda9 87bf 7b57 d13d aada c43d 599b 9dbf
00000200: 6fc1 c53c 6568 643e 22d0 bfbd 1100 343e
00000210: c242 033d 4000 76bc 1338 aebe d454 4b3e
00000220: d25d 3a3c d1e2 4ebc 97d8 65bb a0ad 8cbc
00000230: 2175 6ebe d505 c93e 703e bc3a f917 02bd
00000240: f0f9 2bbe 9c14 b03c cac6 25be 51ca 293e
00000250: 9fe3 713e c45c 243e 4b96 493d 2216 243e
00000260: bc21 023e acc1 f33b 6131 c8bd ca7a 17bd
00000270: bcdf 6e3e d92b 253e c42e 1b3e 7b7c 373e
00000280: 8cfd 343e e7a6 543e dba7 91bd c631 b0bb
00000290: 5b86 3a3e 2d7f 2c3e 8dc1 8ebd bf02 1ebc
000002a0: b3b4 563e 005f be3c 6dd7 623e f2c1 423d
000002b0: ca7b 563e 38b4 403e bb62 6b3e f8a9 5c3e
000002c0: b5b1 733e 2d2f 87bc 68d0 903d 694a 363c
000002d0: 2d47 933b d8e4 b43d f548 3e3e 4866 6dbd
000002e0: 7613 f4bf 92f2 bc3d 4796 223e 52b0 913d
000002f0: 5bb2 523e 8a4b 04bd ccc1 273c 1664 4c3e
00000300: 2eb9 4b3e 2ac3 1d3c a137 273d 02f1 df3e
00000310: 58e9 27bf 03c9 23bc 5d8a 2b3e e93e 0ebe
00000320: 7b15 383e 5a47 323e 1429 89bc ecd8 4ebe
00000330: d567 8dbb 3ffb 57bd 5ca1 22bb 8d69 d5bc
00000340: 4753 3b3c 99a5 ff3c dac0 3a3d 7071 613e
00000350: af91 0d3e c497 e13d 4da5 d53b 0148 483e
00000360: f9b4 eabd f9bc 5c3d 9c00 6f3e 8530 cb3c
00000370: 8395 5bbf f3a9 2d3e 1355 0b3e 57f5 35bf
00000380: 9f2d 1cbe 94e6 703e 1574 0f3d e85c 9c3d
00000390: cc57 59be edf4 41be 4d6a ccbf fdb5 5c3d
000003a0: cec2 81bd 3639 e53b e9d0 85be d9b7 263e
000003b0: d575 43bd 079f 70be e5a4 673e 833d 95bf
000003c0: f9d9 323e 0117 443e 004f bdbd 00cd 813e
000003d0: 2616 753e 3c52 b93d d4d2 61bf c8e7 1e3e
000003e0: fe3c e43d db7e 99bd 7625 373e 3929 8a3d
000003f0: 8a8a 7fbd f44f 91bd 4839 93bc 37de 113e
-0.16742884 0.18543038 0.06454938 0.18083555 -0.19142327 -0.005794394 0.77312076 0.15382716
-0.85508317 0.14102852 0.02998836 0.013668389 -0.017468072 -0.10412302 0.13345227 -0.047161352
0.034599904 0.172815 0.19608751 0.20669867 0.14337571 -0.36373398 -0.0602158 0.24359724
0.023066731 -0.022689205 0.17893854 -0.001902888 -0.35011628 -0.10773781 -0.006958224 0.16229193
-0.1461502 -0.18248421 0.20042585 0.11109352 0.013478894 -0.0015219466 0.22125041 0.052345112
0.119203925 -0.27833575 0.0042982106 0.013510554 -0.11265469 -0.0613669 0.017357772 0.03332412
-0.21832338 0.0054993173 0.02466632 -0.15229727 0.18400678 -0.029858263 -0.08661315 -0.4994657
-0.2831211 0.19054559 0.2384267 -0.08216876 -0.24155985 -0.10223324 0.005428588 0.07953919
0.03449388 0.12233656 -0.19203407 0.21139157 -0.24786264 -0.02022091 0.11377305 0.007583639
0.3040516 0.043027055 -0.26795632 0.20917973 0.1552071 -0.17718184 -0.005760929 0.0029665884
-0.038073875 0.23443498 0.19055305 0.03745899 -0.4999674 0.0009622454 0.19295217 0.11898756
-0.003829934 -0.110639304 0.045717366 0.043273546 -0.7210305 0.13007282 0.22504714 0.21528752
0.1890684 0.014790552 -0.012473172 0.060074624 0.24053827 0.14437185 0.06731047 -0.04997879
0.15752785 0.16648306 0.14348942 -0.7710787 0.043200485 -0.050645057 0.007913606 0.02883014
-0.23198593 0.19246162 0.1621705 -0.3094178 0.25623167 0.18272328 -0.0060890242 0.0075998004
0.051277712 0.20102635 0.053001244 0.05275976 -1.0598713 0.10221764 0.09612019 -1.2313033
0.024140088 0.22305448 -0.0936587 0.1757815 0.032046087 -0.015014708 -0.34027156 0.19856578
0.011374908 -0.012627319 -0.0035071725 -0.017172635 -0.23286869 0.39262262 0.001436187 -0.031761143
-0.16794562 0.021494202 -0.16189113 0.16581084 0.23621987 0.16051012 0.049215596 0.16024068
0.12708181 0.007438859 -0.09775043 -0.036982335 0.23327535 0.16130008 0.15154558 0.1791858
0.17674845 0.20766793 -0.07112094 -0.005377027 0.18215315 0.16845389 -0.06970511 -0.009644209
0.20967369 0.023238659 0.22152491 0.047548242 0.2094566 0.18818748 0.22986881 0.21549213
0.23798259 -0.016501987 0.07071 0.011126139 0.004494569 0.08832711 0.18582518 -0.05795887
-1.9068439 0.09225954 0.15877639 0.071137086 0.2057585 -0.032298602 0.010239076 0.19960055
0.19894859 0.00962905 0.040824536 0.43738562 -0.6559043 -0.009996655 0.16752 -0.13891186
0.17976944 0.17410031 -0.01674322 -0.20199937 -0.0043153563 -0.05272984 -0.0024815416 -0.026051307
0.011433429 0.031206893 0.045594074 0.22015929 0.13825105 0.11015275 0.0065199495 0.19558717
-0.11460299 0.053891156 0.23340076 0.02480341 -0.8577501 0.16959362 0.13606672 -0.71077484
-0.15251778 0.23525459 0.035022814 0.07634908 -0.21224898 -0.18941088 -1.596994 0.053884495
-0.06335984 0.0069953455 -0.26135948 0.1628107 -0.047719795 -0.23498164 0.22621496 -1.1659397
0.17465962 0.191494 -0.09243584 0.25351715 0.2393423 0.09048888 -0.88212323 0.15518105
0.11144446 -0.07494899 0.17885384 0.06746144 -0.06238798 -0.07095328 -0.01797165 0.14244924

net.4.bias f4 [40]
00000000: d523 c63d 8a51 8e3e 6f04 963e 6899 f13c
00000010: 0d00 483c 306d 3a3e bcf0 dd3e 253d 023d
00000020: 1d33 2c3e 740c e3bd 5115 7c3e cdb6 8b3d
00000030: 2666 523e 7bcd 843e e283 883e dfa9 913b
00000040: 7ac8 443e bb0d 863e ec48 f3bd cb6a 38be
00000050: 4f58 383e da0f 193e e4c2 ab3e 3930 953e
00000060: 5a17 ca3d 860c aa3e 9803 653e 77ed 1f3e
00000070: 5568 16be e51f 91bc b41e 523e 1edc 0e3e
00000080: 259d 293e f61f 2e3e 6b98 3d3e 1236 9c3e
00000090: 06d0 733e 54cf 113f 7a6c 953d db8b be3d
0.09674803 0.27796584 0.29300258 0.029492095 0.012207043 0.18205714 0.43347728 0.031796593
0.16816373 -0.110863596 0.24617507 0.06821976 0.20546779 0.2593802 0.2666312 0.004445299
0.192171 0.2618235 -0.11879143 -0.18009488 0.18002437 0.14947453 0.33547127 0.29138353
0.09867735 0.3321268 0.22364652 0.1561793 -0.14688237 -0.017715404 0.20519525 0.13951156
0.16563852 0.1700438 0.18515174 0.30510002 0.23809823 0.5695698 0.07296081 0.09304019
