Tetris/tetris_vs_heuristic_hold_policy_parallel.pth (torch, 529057 bytes, 6 tensors)

net.0.weight f4 [256, 214]
000000 3c 95 58 bd 30 10 88 bc b6 6e 2d bd 60 cb 12 3c
       -0.052876696 -0.016609281 -0.04234191 0.008959621
000010 6c 97 91 3c cd 36 88 3d dd d5 1f bd 00 78 6d 3b
       0.017772399 0.066510774 -0.039022315 0.0036234856
000020 d8 e8 1c bd da 5e 73 3d 68 04 b5 3c 60 ce cd bb
       -0.038307995 0.05941663 0.022096828 -0.0062807053
000030 e4 c2 b5 bc 8c 6c f3 3c 64 30 ef 3c 88 18 0f 3d
       -0.022187658 0.029714845 0.02919788 0.034935504
000040 3b a3 5a bd 80 21 58 3c 58 09 35 bc f0 ed ac 3b
       -0.053378325 0.013191581 -0.011049591 0.005277388
000050 8c 37 37 bd 94 57 4a bd 53 ef 7e bd 30 62 e4 3b
       -0.044730708 -0.049399927 -0.062239956 0.0069697127
000060 20 03 31 3d c2 2a 5e 3d f2 34 77 3d f4 96 51 3d
       0.04321587 0.054239996 0.060353227 0.05116935
000070 20 8f df 3b df 35 4b bd b0 f1 02 3d b5 85 44 3d
       0.0068224818 -0.049611922 0.031968772 0.047979075
000080 2c ab 5a bc 09 e2 29 bd b2 74 b6 bb a3 e7 74 bd
       -0.013346475 -0.04147533 -0.0055681104 -0.05979122
000090 5e 51 57 bd b2 e1 80 bd 46 f4 13 bd 12 bc 42 3d
       -0.052567832 -0.06293048 -0.03612163 0.04754264
0000a0 48 4a e1 bc 37 5e 38 bd 2a 56 a9 3d 8a a2 21 bc
       -0.02750124 -0.045011725 0.082683876 -0.0098654125
0000b0 28 97 79 bc 18 2f 50 bd 8c c0 13 bc 84 61 ae 3c
       -0.015233792 -0.050826162 -0.009018075 0.021286733
0000c0 c5 5c ab bc b8 af 1e bb be d3 47 bd ab 74 67 3d
       -0.02091826 -0.0024213623 -0.048785917 0.056507748
0000d0 06 32 2a 3d 3f 87 93 3d 6a a9 44 bd c6 f9 88 bd
       0.041551612 0.072035305 -0.04801313 -0.066882655
0000e0 23 91 20 bd 11 72 79 bd 87 99 2b bd 66 aa 4c 3d
       -0.039200913 -0.060899798 -0.041894462 0.049967192
0000f0 d8 a5 9c 3c c6 dd bb bc 9a 53 3c 3d d2 cc 65 3c
       0.01912205 -0.022932898 0.045978166 0.014025884
000100 00 9a 94 3c 0b f9 99 bc c5 d3 5b bd 50 3f de 3b
       0.01813984 -0.01879551 -0.053668756 0.00678245
000110 b3 50 83 3d a9 b3 47 3d 98 93 58 bd a8 48 cc bc
       0.064118765 0.04875532 -0.05287513 -0.024936989
000120 d0 b6 9c bc e0 c0 d0 3c b7 f4 83 ba 26 2d 3e 3c
       -0.01913014 0.025482595 -0.0010067438 0.011607444
000130 e0 90 62 3c c8 5a 0c 3d 59 30 01 3d af 30 09 3d
       0.013828486 0.034266263 0.03154025 0.033493694
000140 08 3e 45 bd 45 11 b3 3c 4e 43 95 3d 3e 4a 32 bc
       -0.04815486 0.02185882 0.07288228 -0.0108819585
000150 aa 69 aa bb 2c 35 ec 3c 67 98 2f bc 6f 2b 53 bd
       -0.0052005844 0.028833948 -0.010717488 -0.051555093
000160 a7 c8 44 3d 0a 95 2c 3d c6 4d ae 3b 27 72 9e 3d
       0.04804292 0.042134322 0.00531933 0.077366166
000170 ce a3 9c 3d 88 86 a3 bc f9 7b 81 3c 0f d4 03 3c
       0.07648431 -0.01996161 0.015806185 0.008046164
000180 d6 d0 5b 3c 51 af bc bc 09 b5 3f bd a9 39 c8 3a
       0.01341649 -0.023032816 -0.046803508 0.0015275973
000190 93 1d 6a 3d cb dd 28 3d fb 67 33 3d ab cf 51 bd
       0.05715711 0.041227143 0.043800335 -0.05122344
0001a0 71 74 aa 3d 9a a8 8a bc 64 42 42 bd ad e8 84 bb
       0.08322991 -0.016926099 -0.047426596 -0.0040560574
0001b0 97 55 19 3b b3 57 2f 3d 2f 0a 4f bd d7 b3 d0 bb
       0.0023396963 0.042808246 -0.05054682 -0.006369095
0001c0 d9 80 8e 3d 96 80 a9 3b b9 6d 55 3d 5b 77 fe bc
       0.069581695 0.0051727993 0.052106593 -0.031062772
0001d0 99 95 a7 3b 6c a8 6a 3c 05 50 14 3c 5a ce b4 3c
       0.005114269 0.0143223815 0.009052281 0.022071052
0001e0 3a 46 50 3d 9c c7 2b bd ad ce 30 3d 97 bf de 3c
       0.050848223 -0.04193841 0.04316585 0.027190967
0001f0 1a 75 57 3d d8 9c 2f 3d 59 cd 9c bc c8 1e 27 3d
       0.05260191 0.042874187 -0.019140886 0.04080084
000200 0e 09 80 3c c7 34 a3 3d 77 2f ef 3c e1 01 69 3b
       0.015629318 0.07969051 0.029197438 0.0035554098
000210 42 7f 00 3d 3b 63 1e 3d db f5 87 3d c4 d9 22 3c
       0.031371363 0.038668852 0.0663869 0.009939615
000220 8a e6 8a 3d ca 6d 8e 3c a4 72 bc 3c 14 75 df 3b
       0.06782253 0.017386336 0.023003884 0.0068193767
000230 4c 6d ed ba 64 a8 30 bc 97 1a a5 bc ba 6a cf bc
       -0.0018114238 -0.010782335 -0.02015428 -0.025319446
000240 9e 97 d4 3d ff 39 8c 3d 7c 96 42 bd 73 ae ea bc
       0.10380481 0.068469994 -0.047506794 -0.028647637
000250 e3 1a a8 3a 38 6f 6e 3b 26 17 88 3c d2 79 7b 3d
       0.0012825396 0.003638221 0.0166126 0.061395474
000260 12 9c 56 bc 63 1e 07 bc 2c f0 59 3d eb 23 f6 bc
       -0.0130987335 -0.008246991 0.05320756 -0.030046424
000270 86 5c e6 3b 32 d2 12 3d 08 f4 77 3d a1 44 00 3d
       0.0070300726 0.03584499 0.06053546 0.03131545
000280 33 2f 33 3d a4 45 10 3d e4 7f 4d 3d dd 90 e5 3b
       0.043746185 0.035222664 0.050170794 0.0070057944
000290 ba 02 53 bc f8 a5 fc 3d 6b be 50 3d 1d bc 32 bc
       -0.012879068 0.123363435 0.050962847 -0.0109091075
0002a0 6a cf b7 3d 43 cd 7b 3c 24 98 72 3d 03 0a 05 3d
       0.08975108 0.015368762 0.059227124 0.03248025
0002b0 68 27 b8 3d f7 9e 8d 3d f3 c0 bf 3d ab b7 d0 3d
       0.08991891 0.06915086 0.09362974 0.10191282
0002c0 d0 00 a4 3d 55 2c 8e 3d 1e bb 92 3c 2d 06 b3 bb
       0.080079675 0.069420494 0.01791149 -0.0054633827
0002d0 ae e7 bb 3d d7 cb 48 3d 83 4d 7c 3d e2 e3 86 3d
       0.09175049 0.04902252 0.06159736 0.06586434
0002e0 f0 2b 13 3d 05 c8 76 3d 45 b4 3a 3d 62 71 f1 3d
       0.035930574 0.060249347 0.045582075 0.11789204
0002f0 d2 3a 97 3d db 02 25 bd 24 5a 95 bd c5 94 8b 3d
       0.07384266 -0.040285926 -0.072925836 0.06815485
000300 49 c2 8a 3d 75 4d 23 bc e7 f3 05 3d 4e 92 e4 3d
       0.06775338 -0.009967198 0.032703307 0.11160718
000310 e1 2b b0 3c be 77 8c 3d 8e 38 9f bc 25 fd 62 3d
       0.021505298 0.068587765 -0.019436147 0.0554172
000320 77 04 8f 3b df d0 44 bd ca 53 8e 3d 0c 38 21 3d
       0.004364546 -0.048050757 0.06949575 0.03936009
000330 9e 51 51 3d 20 09 a0 3c 0d 95 97 3d 4b 1a 2b 3c
       0.051103227 0.019535601 0.07401476 0.01044328
000340 d5 16 19 3d 56 4e ad bc ab c3 2a 3c ba 18 9f 3c
       0.03737529 -0.021155518 0.010422627 0.01942097
000350 32 50 c0 3d f8 f3 97 3d ac 7d 16 3d a4 06 a6 3c
       0.09390296 0.0741958 0.036740944 0.020266838
000360 1e da ea bc 82 43 e4 bc 2f 26 1f bd 1b 00 0d bd
       -0.02866846 -0.027864221 -0.038854774 -0.03442393
000370 1e 0c 00 bd d3 8a 85 3d d0 16 72 bd 1e 19 0f 3d
       -0.031261556 0.06520619 -0.059103787 0.034936063
000380 a6 31 11 3d 58 36 ed 3c 00 73 5b 3b de 7f 05 3d
       0.03544774 0.028956577 0.0033485293 0.032592647
000390 80 3d 2a 3d 60 f8 f4 bb d0 56 17 bc 90 0d be 3b
       0.041562557 -0.0074758977 -0.009237006 0.0057999566
0003a0 30 c1 e9 3b 5f 2d 05 bd c4 67 32 3d b1 97 1f bd
       0.0071336254 -0.032513972 0.04355599 -0.038963024
0003b0 69 14 31 bd 5e fe 84 bd e8 fe d0 bc 40 cd d2 bc
       -0.043232355 -0.06493829 -0.025512174 -0.025732636
0003c0 9c 1d f8 bc 40 b4 33 bd 49 6d 85 3d 04 b9 af bc
       -0.030287556 -0.04387307 0.06514985 -0.021450527
0003d0 df bb 89 3d c8 7b b1 bc 84 de 3c bc 08 e8 2d bc
       0.06725287 -0.021665469 -0.011527661 -0.010614403
0003e0 98 38 f8 3c ed 5e 10 3d 2e be 72 3d a0 45 0d bc
       0.030300424 0.03524678 0.0592634 -0.008622557
0003f0 ba f0 13 3d 7e 14 49 bc 60 79 46 3d a4 b0 9d 3c
       0.036118247 -0.012272952 0.048455596 0.019249268

net.0.bias f4 [256]
000000 b2 53 d5 3d 5f 84 93 3d 93 88 4b 3d 5c 53 26 3e
       0.10416354 0.07202982 0.049690794 0.16242737
000010 99 07 04 3d be ef 5e 3c 7c f2 a7 3c c5 c1 b1 3d
       0.03223381 0.013606964 0.020501368 0.08679537
000020 94 c2 01 3e 9a 9e df 3d ee 64 77 3d 3d fa 23 3e
       0.12671882 0.10918923 0.06039899 0.16013427
000030 78 34 ed 3d 11 8c c8 3d 20 de a9 3d 59 1f ec 3d
       0.11582273 0.097923405 0.0829432 0.115294166
000040 d3 00 5c 3d 39 70 88 3c 7f 27 77 3d 10 ab d5 3d
       0.053711724 0.016655074 0.0603404 0.10433018
000050 de d8 90 3d ba 16 7a bc ba 08 d4 3c c7 5c 75 3d
       0.07072614 -0.0152642075 0.025883067 0.059902932
000060 73 b3 e9 3d c9 2c 1c 3e dc 40 e7 3b 01 94 a9 bc
       0.1141118 0.15251459 0.0070572924 -0.020700457
000070 39 7d 6f bd e5 6c e1 3d 2e f4 bf 3d bc 35 0e 3e
       -0.05846903 0.11007098 0.093727455 0.13887686
000080 e4 4d 3c 3d e0 2a df 3d 1b e0 83 3d f9 37 c0 3d
       0.04597272 0.1089685 0.06439229 0.09385676
000090 32 81 4a bd a1 e6 f8 3d 61 3c 6a 3d 29 4b 01 3e
       -0.049439617 0.12153364 0.057186488 0.12626328
0000a0 7e de 9e 3d c5 be 62 3d 74 5c c1 3d 8f 05 96 3d
       0.07757281 0.055357713 0.09441462 0.07325279
0000b0 00 ec 20 3e 22 45 0e 3c 96 51 13 3e 4a a6 80 3d
       0.15715027 0.008683475 0.14386591 0.06281717
0000c0 84 1b 8b bd 7d 37 1d 3d d2 eb 2c 3d ba 26 23 3d
       -0.067923576 0.038382996 0.042217083 0.039831854
0000d0 70 35 dd 3d 3b d9 21 bd 67 a5 05 3e a0 fe a1 3d
       0.10801208 -0.039513808 0.13051377 0.07909894
0000e0 95 ac 9e bd 5c 7c d9 3d 54 ab 1a 3e 51 af 9f 3d
       -0.07747761 0.10619423 0.15104419 0.07797111
0000f0 46 f2 8b 3d 86 ac d7 3d d8 d9 2d 3d a4 41 7e 3d
       0.06833319 0.10530953 0.04244408 0.06207432
000100 91 cf 01 3e e1 31 92 3d 80 06 1e 3e 36 69 ae 3d
       0.12676837 0.0713842 0.15432167 0.08516161
000110 6e 86 7c 3d 4e d8 3b 3c ca 3c 17 3e 06 8e b2 3d
       0.06165164 0.011465145 0.14769283 0.08718495
000120 ad 38 6f bd 88 97 21 3b 0a 5c 82 3c 73 e8 99 3d
       -0.05840366 0.002465697 0.015913028 0.07515039
000130 a3 9d e6 3d 43 0e 0b 3e 01 2e 11 bc 92 4a e8 3d
       0.112605356 0.13579659 -0.008861066 0.11342348
000140 4d b6 4b 3d 36 03 5e 3d 3f ce b0 3a c0 d7 72 3d
       0.049734402 0.05420228 0.00134892 0.059287786
000150 b9 65 05 3e b6 78 a2 3d 6a 0c 0f 3d 4b 81 d0 3d
       0.13027085 0.0793318 0.03492395 0.10180911
000160 50 a1 c6 ba a2 a1 c4 3d 87 1b 64 3d a7 d2 fd 3d
       -0.0015154276 0.096011415 0.055690315 0.12393694
000170 10 97 0d 3e d7 5d cd 3b dd 03 13 3d c8 73 af 3d
       0.13827157 0.00626729 0.035892356 0.085670054
000180 a0 74 bd 3c 90 00 0a 3e ec 9f cc 3d c8 c3 f9 3d
       0.0231269 0.13476777 0.0999144 0.121955454
000190 9f 46 44 3d 82 ea a5 3d 2c 91 08 3e 8c 8f 90 3d
       0.047918912 0.081013694 0.13336629 0.070586294
0001a0 12 5d 12 3e 23 47 d7 3d 90 30 7b 3d e3 45 f0 3d
       0.14293316 0.10511615 0.06132561 0.1173208
0001b0 6a 50 b4 3d a3 3f 12 3d 9f 82 28 bc e8 bb 25 bc
       0.088044 0.03570522 -0.010285049 -0.010115601
0001c0 7f f6 20 3e 4a 44 d5 3d 56 96 3d 3d bd a9 b5 3c
       0.15719031 0.10413416 0.04628595 0.022175664
0001d0 27 bf 12 3e 5c 14 ab 3d e7 69 06 3e 8f 2c f0 3d
       0.14330731 0.083534926 0.13126336 0.11727249
0001e0 fd 03 3b bb 6f 55 b3 3d 5a 7f a2 bb a4 b4 11 3e
       -0.0028536313 0.087565295 -0.004959029 0.14229065
0001f0 de 9c aa 3c 81 de 74 3c 53 4c 1c 3e 91 db 0a 3e
       0.020826753 0.014945627 0.1526349 0.1356032
000200 b0 b3 9d 3d 0e 6b 00 3e ae 97 c0 bc 47 a1 cf 3d
       0.07700288 0.12540838 -0.023509827 0.10138183
000210 6c e6 9a 3d 2e 74 8e 3d 83 d6 e0 3a e1 3b a7 bd
       0.07563481 0.06955753 0.0017153773 -0.08165718
000220 61 8a 15 3d 96 e1 21 3c 59 96 49 3d 62 68 6a 3c
       0.03650892 0.009880444 0.04921565 0.014307113
000230 ed d8 36 bd c4 2a 21 3e e8 4b ed 3d a2 b7 2d 3c
       -0.04464047 0.1573897 0.115867436 0.0106028635
000240 d7 49 be 3d 55 e3 1b 3e 2f b4 81 bd df 08 6c 3d
       0.092914276 0.15223439 -0.063331954 0.057625648
000250 a0 23 d0 3d 8e f9 6c bd 43 84 f0 3d d7 f0 f4 3d
       0.10163045 -0.05785518 0.11743977 0.11959999
000260 32 9b 9f 3d 32 f4 10 3d 31 a7 03 3e 0b 07 d6 3d
       0.07793273 0.035389133 0.12856747 0.10450562
000270 3a 04 fa 3c a3 7c 22 3e ed ec 13 bd 82 40 e4 3d
       0.030519594 0.15867858 -0.036114622 0.111451164
000280 85 ab 8a 3d cf 21 07 3e 57 e7 3b bd 77 74 92 bd
       0.06770996 0.1319649 -0.04587492 -0.0715112
000290 23 d8 0f 3d 1b 69 a4 bd 45 d5 0f 3e c0 2b 27 3e
       0.035118233 -0.0802786 0.140462 0.16325283
0002a0 b2 08 96 3d 8a a4 1b 3d 91 32 81 3c e8 32 81 bc
       0.07325877 0.037998714 0.015771182 -0.015771344
0002b0 f0 a1 28 bd f4 39 82 3c 93 90 8a ba 82 72 f9 3d
       -0.04117006 0.015896775 -0.0010571651 0.12180044
0002c0 84 31 66 3d 54 dd 85 3d 95 a2 93 3c 60 46 a9 3d
       0.056199566 0.065363556 0.018021861 0.08265376
0002d0 7a 96 09 3e ae 42 c1 3d 5c af 91 3d bc b4 6f 3d
       0.13436309 0.09436546 0.07113525 0.05852197
0002e0 30 24 e2 3d 84 de e1 3c 2f 65 d8 3d 9f c7 c4 3d
       0.110420585 0.027571924 0.10566174 0.09608387
0002f0 35 62 0f 3e 56 c0 99 3d bc 87 b4 3d 34 a4 58 3c
       0.14002307 0.07507388 0.08814952 0.013222743
000300 e6 88 6b 3d 84 13 1f 3e 79 ac fe 3a d3 81 01 3e
       0.057503603 0.15534788 0.0019430063 0.1264718
000310 a7 61 e4 3b 25 fb 3d 3c e0 fa a3 3d 4b 3f 09 3e
       0.006969649 0.011595522 0.08006835 0.1340305
000320 ed 13 a7 3d c3 24 e0 3d ee bf 3f bd 36 35 62 3d
       0.081580974 0.10944512 -0.046813898 0.055226527
000330 22 f2 8f 3d eb ae 01 3e 95 5c b8 3d 3e 52 83 3d
       0.07028605 0.12664382 0.090020336 0.06412171
000340 16 07 e4 3d cb 6a ce 3d d1 74 a6 bc 91 fc 11 3e
       0.11134164 0.10078963 -0.020319374 0.14256503
000350 e6 03 0c 3e c5 45 a5 3d 0e 08 2b 3d 2a af 65 3d
       0.13673362 0.08069948 0.04175573 0.056075253
000360 fc 17 cf 3d 87 c7 95 bd fb 10 0a 3e 0a e0 01 3e
       0.101119965 -0.073134474 0.1348304 0.1268312
000370 7e 96 15 bd af cd da 3d b1 76 ea 3d 05 ac ad 3d
       -0.036520474 0.10683762 0.1144842 0.08480076
000380 cd a7 c4 3d 4f f8 1e 3e 3d 43 c8 3d de c9 80 3d
       0.09602318 0.1552441 0.0977845 0.06288503
000390 d4 f6 f2 3d 3e f1 08 3e 6a 2d 2b 3d b7 31 d0 3c
       0.11863485 0.13373277 0.041791357 0.02541433
0003a0 b3 f2 05 3e 3e 44 fd 3d 84 a0 c5 3b 82 1e b3 3b
       0.13080864 0.12366532 0.006031098 0.0054662833
0003b0 3a d2 48 bc a6 e5 48 3c 5b a7 a1 3d e3 f7 97 3d
       -0.012257153 0.012261784 0.07893249 0.074203275
0003c0 79 9a fa 3d a7 6e 34 3d 92 91 14 3e bb c1 49 bd
       0.122364946 0.04405084 0.14508656 -0.04925702
0003d0 cd de d2 3d 51 cb 83 bc 4a 4e 1c 3d ba c4 0a 3e
       0.10296402 -0.01608816 0.0381606 0.13551608
0003e0 76 11 06 3d b3 18 32 bd 1b aa 58 3d e0 de 2a 3d
       0.032731496 -0.043480586 0.0528966 0.041716456
0003f0 c9 a5 13 3d 63 20 2b bd a4 db af 3d e9 09 65 bc
       0.036046777 -0.041778933 0.08586815 -0.013979414

net.2.weight f4 [256, 256]
000000 1f 04 dc 3d 04 17 35 3d ac b0 5c 3d 92 2f 31 3c
       0.107429735 0.044211403 0.053879425 0.010814564
000010 d2 84 c4 b9 40 22 1f 3d 4c 11 d7 3d 56 cc bc 3d
       -0.00037482992 0.038851023 0.10501346 0.092186615
000020 13 6c ca 3a 76 69 21 3c 7f 3b cc 3b 5f 3c 80 3c
       0.0015443586 0.009851804 0.0062326784 0.015653787
000030 32 fd d9 3d 85 cd df 3c c8 5f d7 3d f0 51 0d 3d
       0.10643996 0.027319679 0.10516316 0.03450197
000040 16 d9 96 3d e1 e7 48 3d 22 f7 22 3d f3 4d a2 3d
       0.073656246 0.049049262 0.039786465 0.07925024
000050 48 e2 b1 3d 4f 17 0a 3d b9 f3 2a 3c d2 c6 15 3c
       0.08685738 0.033713635 0.010434085 0.009141641
000060 d9 0a 3d 3d 65 70 dc 3d 9f 9a 54 3d f3 e1 df 3b
       0.046152923 0.10763625 0.05190527 0.006832355
000070 a5 c4 da 3b a7 9e 7c 3d c9 f2 3d 3d bc 17 60 3d
       0.006676274 0.06167474 0.046374116 0.054710135
000080 ee 1e 1a bc a7 33 16 3d 19 3b 9a 3d a9 8e ef 3d
       -0.009406788 0.036670353 0.07530803 0.11697132
000090 a4 2f 4d 3d 2c dd a0 3d 19 52 0d bc a5 b6 9a 3d
       0.05009426 0.07854685 -0.008625531 0.07554368
0000a0 04 e5 e3 3d de 4d 71 3d d9 25 1f 3c 47 94 8e 3d
       0.11127666 0.05891215 0.009713613 0.069618754
0000b0 ae 79 47 3d 36 6c 9e 3c 0d 34 b3 3c c0 bf af 3d
       0.048700027 0.019338708 0.021875406 0.08581495
0000c0 cd b7 6c bd 13 a0 b9 3c 0e f0 dc 3c 20 35 b3 3c
       -0.057792474 0.022659337 0.026969936 0.021875918
0000d0 6a 9f 4b 3d 07 10 19 bd 3a d7 da 3d 92 a0 8b 3d
       0.049712576 -0.0373688 0.106855825 0.06817736
0000e0 a7 70 44 bd 31 fb ac 3c a7 9b 19 3d 2b da 67 3d
       -0.047958996 0.021115871 0.037501957 0.056604546
0000f0 b8 93 b8 3c 84 a0 db 3c e0 e3 cd 3d be c8 d9 3d
       0.022531375 0.026809938 0.10053229 0.10633992
000100 5b 5a 87 3d eb 72 0e 3d 09 1c 93 3d 0c 73 e8 3d
       0.06609031 0.034777563 0.07183082 0.113500684
000110 61 cc 0e 3d 3f b0 a3 3d 30 87 1b 3d ed d9 4b 3d
       0.03486288 0.07992601 0.03797072 0.049768377
000120 60 ea 9e b9 bf d8 83 3c c0 02 81 bc 44 f5 86 3d
       -0.0003031073 0.016094564 -0.015748382 0.065897495
000130 c7 62 fb 3d aa cf ee 3d 59 ff b9 3d ff 72 81 3d
       0.122747 0.116607025 0.09081907 0.06320762
000140 bb af f5 3d 99 ab dc 3b a3 41 b4 3c f3 08 09 3d
       0.119964086 0.006734323 0.022003954 0.0334558
000150 31 c2 11 3d d0 91 a1 3d 1f e8 d7 bc 01 52 d4 3d
       0.035585586 0.0788914 -0.026355801 0.103672035
000160 98 48 ee 3b 12 6a 30 3d d6 8a ea 3d 03 95 c9 3d
       0.0072718374 0.043069907 0.11452262 0.09842875
000170 af a3 42 3b 79 8d a0 3d 12 64 3c 3d bd 41 6f 3d
       0.0029699614 0.07839484 0.045993872 0.058412302
000180 38 af 99 bc 8c 95 03 3e 42 8e 39 3d 91 8c bd 3d
       -0.018760309 0.12850016 0.045301683 0.092553265
000190 a4 10 b5 3d 81 26 b3 3d 66 27 a0 3c 95 59 a3 3d
       0.088410646 0.087475784 0.019550037 0.07976071
0001a0 1e 43 d3 3d a3 93 22 3d 2c 19 e1 3c 58 e9 80 3d
       0.10315536 0.03969158 0.027477823 0.06294507
0001b0 53 9d 75 3d 44 b9 a0 3d 3c 05 60 3d 3a be 3b 3d
       0.05996449 0.078478366 0.054692492 0.04583571
0001c0 07 ce c4 3d 35 da e5 3d 9a ad 8b 3d 08 1e 43 3d
       0.09609609 0.1122326 0.06820221 0.047636062
0001d0 a6 82 ad 3d 96 89 f7 3d c8 30 64 3d f3 b4 d2 3d
       0.08472185 0.12086789 0.055710584 0.102884196
0001e0 13 3f 58 3d 83 fc 55 3d 03 73 c1 3d 64 b7 51 3d
       0.052794527 0.052242767 0.09445765 0.051200286
0001f0 8c 7a e1 3d c7 47 03 bc cd c3 0d 3e dc 1b ab 3c
       0.11009702 -0.0080127185 0.13844223 0.020887308
000200 d3 88 e2 3c 62 89 87 3d ff 9d 46 bb 96 85 9d 3d
       0.027653133 0.066180006 -0.0030306575 0.07691495
000210 af 77 b5 3d e8 53 73 bc 5a 3c 13 3c 67 e9 ef bb
       0.088607185 -0.014851548 0.008986557 -0.007321525
000220 37 25 ea 3d 65 b6 aa 3d 0e c4 99 3d 24 8a 84 38
       0.114328794 0.0833557 0.075080976 6.319981e-05
000230 65 18 fe 3c b6 01 e8 3c b6 db 99 3d 45 95 b1 3c
       0.031017492 0.028321128 0.0751261 0.021677623
000240 42 cd 94 3d 07 34 a7 3c 14 d8 a9 3c 90 ba cd 3d
       0.07265712 0.02041055 0.020732917 0.100453496
000250 1c fd d5 3d 57 ce 17 3c d5 6a 88 3d 09 8d d8 3d
       0.104486674 0.009265504 0.066610016 0.10573775
000260 71 73 b2 3d e0 8e db 3d e9 4e 7b 3d 78 2c 09 bb
       0.08713425 0.107206106 0.06135455 -0.0020931046
000270 2b 67 62 3d eb a2 82 3d a9 65 ab 3b 05 8c 40 3d
       0.05527417 0.063787304 0.0052306247 0.047008533
000280 28 df 84 bb c5 52 83 3d a4 24 e7 bc 4d bb 37 3d
       -0.0040549226 0.064122714 -0.028215714 0.04485636
000290 2c af 13 3d 32 5e 87 3c 97 29 35 3d fb cf 97 3d
       0.03605573 0.016524408 0.044229116 0.07412716
0002a0 cb 52 7d 3d 5c a7 db 3d 31 80 a0 bb 0e 78 bf 3d
       0.061846536 0.10725281 -0.004898094 0.093490705
0002b0 62 27 a6 3d 63 f2 af 3d 25 7c 15 3d fe 9f 5f 3b
       0.081129804 0.085911535 0.036495347 0.0034122462
0002c0 82 4b d8 3d 0e 2e 9a 3d e9 3b f0 3d 08 fb f2 3c
       0.10561277 0.075283155 0.11730177 0.029660717
0002d0 12 22 5e 3d f2 d5 e7 3d d4 14 b9 3d 34 33 b8 3c
       0.05423171 0.11320104 0.09037176 0.022485353
0002e0 da 65 78 3d 3d 7f 70 3d d8 de ed 3c 12 67 3b 3c
       0.06064401 0.058715094 0.029036924 0.011438148
0002f0 24 4b 09 3d 47 ab 9d ba 75 0a 71 3d d9 1d 29 3d
       0.033518925 -0.0012029194 0.058847863 0.04128823
000300 04 c9 94 3d 2e eb b6 3d a2 7e 49 3d 37 1f fc 3b
       0.07264903 0.08931576 0.049193032 0.007694151
000310 95 a0 a1 3d 49 69 9c 3d 25 4e 3a 3d 80 d5 e5 3c
       0.07891957 0.07637269 0.04548468 0.028055906
000320 a6 c5 f6 3d a3 f0 8f 3d 22 fb 1c bb cf 1e 9a 3d
       0.12049417 0.0702832 -0.0023953398 0.075254075
000330 da d3 32 bc 99 70 aa 3c 41 cd 11 3d f0 70 a6 3d
       -0.010914767 0.020805644 0.035596136 0.0812701
000340 21 86 2b 3d bb 14 ed 3d f4 e9 c6 3c 47 80 fb 3c
       0.041875962 0.1157622 0.02428148 0.030700816
000350 17 0a 48 3d bb a1 a2 3d 4c fd 15 3d 4f 0d 40 bc
       0.048837747 0.07941004 0.036618516 -0.011721923
000360 14 f1 38 3d 0c 66 4e bb 2a 72 9d 3d 27 2a cf 3d
       0.045151785 -0.003149393 0.07687791 0.10115462
000370 85 bd 64 3d a6 0f 95 3d e3 45 aa 3d 69 27 91 3d
       0.055844802 0.07278375 0.08314111 0.07087595
000380 56 60 07 3e 56 d7 4f 3d 31 92 51 3c 13 0e 7f bc
       0.13220343 0.05074247 0.012791202 -0.01556732
000390 fb 33 d5 3d 30 6d e7 3d d5 45 f7 bb 73 3f a1 3d
       0.10410305 0.11300123 -0.0075461664 0.0787343
0003a0 28 2a dd 3c 34 70 6a 3d 4f 86 d7 3d 20 08 53 3d
       0.02699764 0.05723591 0.10523664 0.05152142
0003b0 c2 f8 55 bc b1 1c 50 3d f9 15 92 3d 8a e8 d3 3d
       -0.013059797 0.050808612 0.07133097 0.10347088
0003c0 74 a7 86 3d 81 df 01 bd 2c d6 3a 3c c8 c3 d1 bc
       0.06574908 -0.03170729 0.011403602 -0.025606051
0003d0 2a e7 b6 3d 37 6b 35 3c 1b ef 72 3d 8b 4e c4 3c
       0.0893081 0.011072925 0.05931006 0.023963233
0003e0 b1 6f a6 3d 3a 8c 51 bc 74 5a 41 3d 1d a3 ea 3c
       0.08126772 -0.01278978 0.047205403 0.028642232
0003f0 f4 2f 67 3d 4c 01 7a 3a 80 be 8b 3d a2 34 22 bc
       0.056442216 0.00095369364 0.06823444 -0.009900244

net.2.bias f4 [256]
000000 f1 9e c6 3c 83 00 07 3c e0 88 ab 3c 1b a5 1e 3c
       0.024245711 0.008239868 0.02093929 0.009682919
000010 f7 6d a7 3d e1 b0 82 bd 60 cf c0 3d 51 67 e8 3d
       0.08175271 -0.06381393 0.09414554 0.11347831
000020 99 6e 4a bd 90 c8 96 3d 18 02 dc 3c 62 5e 45 bb
       -0.04942188 0.07362473 0.026856467 -0.003011607
000030 b8 cf 54 bd 02 9a 35 bd 6f 84 fd 3d 03 31 e1 3c
       -0.05195591 -0.044336326 0.12378775 0.02748919
000040 48 7f ea bc 70 e1 7e 3d b9 92 11 3e a6 5c ce bc
       -0.028625146 0.062226713 0.14216127 -0.025190663
000050 8a f9 20 bc e7 ab 6a 3d f4 c5 5d bd 5c e6 3a 3d
       -0.00982512 0.057292845 -0.05414386 0.045629844
000060 ca 09 88 3d 60 12 04 3d 96 c5 7e bd 2f 1d 5a 3d
       0.06642492 0.032244086 -0.06220015 0.053250488
000070 ad 38 81 bd d7 7c 11 3d 21 cd 40 3d 35 5b 2d bd
       -0.06309638 0.035519447 0.047070626 -0.04232331
000080 8f c8 73 3d 06 59 27 bd 59 ff ac 3b a4 19 17 3d
       0.05951744 -0.040856384 0.0052794633 0.036889687
000090 e5 e0 3a 3d 19 70 11 bd f5 d8 0d bd 52 56 ca bc
       0.045624632 -0.035507295 -0.034630734 -0.024699364
0000a0 36 34 fb 38 cd bb 42 3d e7 e9 5b bd cb f0 ee 3c
       0.00011978338 0.047542382 -0.053689864 0.029167553
0000b0 e4 2f 9c 3d 96 75 8f 3d 7f bc 5f bd 16 71 08 3d
       0.07626322 0.070048496 -0.054623123 0.033310972
0000c0 cf 65 9b 3b a5 0a 7c bd 0b 89 40 bd 12 1a 2a 3d
       0.004742361 -0.06153359 -0.047005694 0.04152877
0000d0 8e 0d e4 3c 50 eb 1d 3d a4 67 08 bd 1d 09 c8 3c
       0.027838495 0.03855449 -0.033301964 0.024418408
0000e0 26 e2 d7 3b 46 d8 42 bd a6 a0 41 bd 7a 9f 2d 3c
       0.0065882383 -0.047569536 -0.047272347 0.010597104
0000f0 05 9e 3e 39 dc 7e e3 3d bf 85 1f bd 2e e1 ff 3d
       0.00018178679 0.11108181 -0.03894591 0.124941215
000100 09 65 aa 3d 36 11 2c 3d 2f 72 a7 3c a0 ef b4 bc
       0.08320052 0.0420086 0.02044019 -0.022086918
000110 e5 60 8a bc 14 05 6e bd 9c e2 86 3d 37 cd c9 3d
       -0.016891906 -0.05811031 0.06586191 0.09853595
000120 39 ba 37 bd 7f 50 c1 3c cb 9e 2d 3d 4c 28 17 bd
       -0.04485533 0.023597954 0.042387765 -0.036903664
000130 eb e1 43 3d 9b 82 27 bd d1 72 1b bd ca 8a 8c bc
       0.047822874 -0.04089604 -0.037951294 -0.017156024
000140 a1 92 8e ba ca e8 56 bd d4 d2 dc bc 95 cb 39 3d
       -0.0010877439 -0.0524681 -0.026956 0.045360167
000150 ab fe c9 bb c9 f9 9a 3d 67 c6 de 3d 5f bf 27 bd
       -0.006164392 0.07567174 0.10877686 -0.04095399
000160 98 10 c4 3d 18 4e 1d bd 86 3a f5 bc 94 30 00 bd
       0.095734775 -0.038404554 -0.029935133 -0.031296328
000170 c3 f2 84 bd a8 15 02 3e 58 a7 91 3d 5b ea 98 3d
       -0.064916156 0.12703574 0.071119964 0.07466575
000180 94 01 76 3c f6 2c 0f bd 7a d4 6f 3d a5 50 0e bd
       0.015015025 -0.034954987 0.058552243 -0.034744877
000190 80 d8 c6 3d 5c ae 58 bd 70 7d 60 3d 6e 28 89 3c
       0.09709263 -0.052900657 0.054807127 0.016742911
0001a0 4b e7 62 3d 89 3c 72 bd 3c 51 ce bc b0 11 cb bc
       0.05539636 -0.059139762 -0.02518522 -0.024788707
0001b0 ed b7 43 bb 4f da 83 bd fa ec 14 bb bb 19 ed 3d
       -0.0029864267 -0.064381234 -0.0022724257 0.11577173
0001c0 c5 28 3d bd 97 7e 5f bd b5 19 01 bd 95 1e 45 bd
       -0.04618146 -0.054564085 -0.031518657 -0.04812487
0001d0 6c 54 ef 3d 48 dd 63 bc 5a b1 94 3c 6c 87 31 3d
       0.11686024 -0.013907738 0.018150974 0.04334204
0001e0 1d 0a 1d 3d 72 b3 bc 3d 64 e4 8d 3c 8f 8d 72 3c
       0.038339723 0.09213914 0.01732082 0.014804258
0001f0 ed 07 cc 3d a1 32 21 bd 81 ed a2 bb f4 2d 3d bd
       0.09962449 -0.039354924 -0.0049721603 -0.046186402
000200 1e 07 da 3d 77 a6 84 bd fc f2 81 bc aa 8c 07 3d
       0.10645889 -0.06477063 -0.015862934 0.033093132
000210 2e 91 2d bc fc d7 6a bd 82 3a aa 3c 4f 7f 63 bd
       -0.010593696 -0.057334885 0.020779852 -0.055541333
000220 8f 73 e9 3d 52 d1 fa bc 8a 19 c7 bc f9 15 bf 3d
       0.11398994 -0.03061739 -0.02430417 0.09330363
000230 78 ef 74 bd 48 20 3e 3d e2 7c 9a 3c 0f 61 03 bd
       -0.059798688 0.046417505 0.018858377 -0.032074984
000240 30 c5 08 3d f7 6f bb 3d 68 de 43 bd a2 04 01 3e
       0.033391178 0.09152215 -0.047819525 0.12599424
000250 c4 0f a8 3c a7 e5 d6 bc 0e a9 ce 3d e5 55 cf 3d
       0.02051533 -0.026232554 0.100908384 0.10123805
000260 7b b2 9f bc e1 ae 24 3d 72 02 af 3c 25 2a a3 3d
       -0.019494286 0.04020584 0.02136347 0.07967023
000270 da e1 2e 3b 1c bb 93 bc e9 de 6f bc 65 2d 12 3d
       0.002668491 -0.018033557 -0.014640548 0.035687823
000280 74 66 eb 3d 13 80 4d 3b 27 80 ec 3d c6 d0 27 3d
       0.11494151 0.0031356856 0.115478806 0.040970586
000290 ef 20 d5 3d db c1 5e 3d ef 4a 50 3d ef 80 13 3d
       0.10406672 0.054384094 0.050852712 0.036011633
0002a0 e8 7d 6a bc 50 4f 9c bc eb e0 03 bc 08 6e 15 3c
       -0.014312245 -0.019080788 -0.00804923 0.009120472
0002b0 9d 6b d7 3d f3 49 9b 3c 58 8a 8c 3d c2 fc cb 3d
       0.105185725 0.01895616 0.068623245 0.09960319
0002c0 7b cf a4 3c ac 85 8a bd af 08 88 3d 0e 99 14 bc
       0.020118466 -0.06763777 0.06642281 -0.009069694
0002d0 b6 89 76 3d 23 cf 67 bd bd d2 64 bd bb d8 3b bd
       0.060189925 -0.056594025 -0.05586504 -0.045860987
0002e0 b4 85 37 3d d7 60 60 3d 77 cb 07 3e 18 0b 10 bd
       0.044805244 0.054779854 0.1326121 -0.03516683
0002f0 e8 d2 56 3c 63 51 87 bd 3c 22 06 3d d5 6a 54 3c
       0.013111807 -0.0660732 0.032747492 0.012964924
000300 af aa 49 3d 50 6b fd bc fa 1c 14 3d 6b 2c 8c 3d
       0.049235042 -0.03093496 0.036160447 0.068444096
000310 42 84 9d bc 25 2d 80 3d a6 3b 5d bd ab 7d f3 bb
       -0.019228105 0.06258611 -0.054011963 -0.0074307523
000320 70 bf 82 bd 04 2f 8e bd c5 c7 26 3e f7 0e fa 3c
       -0.0638417 -0.06942561 0.16287144 0.030524714
000330 c4 b8 0a bd 48 a1 f4 3d 82 3c 28 bd bb 33 25 3d
       -0.033867612 0.119448245 -0.04107333 0.040332537
000340 61 36 94 bb 4e 67 de 3c a2 ac 77 3c d6 24 95 3d
       -0.004523084 0.027148869 0.015116842 0.072824165
000350 cc 42 43 3c bd ea bd 3d eb 25 bc 3d eb a2 4e 3d
       0.011917781 0.092732884 0.0918692 0.05044834
000360 98 c7 7d 3d 56 60 32 bc 06 ea a1 3c cc 0e 2e 3d
       0.061957926 -0.010887226 0.019764911 0.04249458
000370 3e f4 87 bd e8 31 91 3d a1 f7 39 3d 34 86 0a 3d
       -0.066383824 0.07089597 0.045402173 0.033819392
000380 f5 ce 4e bd f9 c5 fa 3c d4 c1 04 3e 7e b8 38 b9
       -0.05049034 0.030611979 0.12964565 -0.00017616336
000390 95 77 08 3d cb 36 ff 3c 18 4b 8d bc 04 d9 37 bd
       0.033317167 0.031154057 -0.017247722 -0.044884697
0003a0 0e 67 5a 3b 72 6e 22 3d 9c 9b b3 3c 62 a8 98 3c
       0.0033325586 0.03965611 0.021924786 0.018634979
0003b0 10 4e c5 3c 44 f1 ca 3d 7b 2a e0 3c 93 df c0 3a
       0.024085075 0.09909299 0.027364006 0.0014715068
0003c0 03 11 15 bd b0 d3 7d bd af cd 8d 3d b5 ac 51 3c
       -0.036393177 -0.06196946 0.06923997 0.012797524
0003d0 7d 1f 5c 3d fa 9a ae 3d 9e ed de 3c 68 e4 26 3d
       0.053740967 0.08525653 0.027212914 0.04074517
0003e0 db 68 82 bb b1 a9 12 bd b9 85 6e 3d 26 33 47 bd
       -0.003979785 -0.03580636 0.058232997 -0.048632763
0003f0 ea 5e f0 3c f2 39 db 3a cf 58 74 bd 3d 87 10 bd
       0.029342134 0.0016725643 -0.059655007 -0.035285223

net.4.weight f4 [41, 256]
000000 c9 1c aa 3c 2b ea 98 3c 38 2c f7 3a 4b da a9 3d
       0.020765679 0.018666347 0.0018857783 0.08293589
000010 99 9a 8a 3d ff ed 2b bd 96 e4 2e 3d 7b 9f 97 3d
       0.067677684 -0.041975018 0.042698465 0.07403465
000020 ed c2 a1 bc c4 8f c2 3d 03 c0 d9 bc 1a 9d 99 3c
       -0.019746268 0.09500077 -0.026580816 0.01875167
000030 4b cf 86 bd 72 d2 27 3c 38 80 f0 3c 93 6b 28 3d
       -0.06582507 0.010243045 0.029358014 0.041118216
000040 28 a7 61 3d 43 9e 11 bc a9 58 d3 3d 12 d8 3d bd
       0.055091053 -0.00888783 0.10319645 -0.04634864
000050 25 95 7e 3c 73 f8 00 3d 8a b1 2c 3d dc 6d 5b 3c
       0.0155384885 0.03148694 0.042161502 0.013392892
000060 12 b8 9b 3d 98 fd 51 bd 30 da 5f bd 0b a7 1b 3d
       0.07603468 -0.051267236 -0.05465144 0.0380011
000070 36 90 51 bc 75 cd 43 3d 9e 52 56 3d 6b 2b 63 bd
       -0.01279073 0.04780336 0.052324884 -0.05546133
000080 ac 7e cc 3d 28 23 3c bb 66 50 89 ba d0 ca d6 3d
       0.09985098 -0.0028707478 -0.0010476231 0.10487902
000090 1c fc 1f bd 9d 12 03 3d 11 26 a7 bc 36 a4 fa bb
       -0.03905879 0.032000173 -0.020403894 -0.00764897
0000a0 03 65 1f 3d 07 4b ee 3b c9 32 1f 3d e6 33 28 3d
       0.03891469 0.0072721276 0.038866792 0.04106512
0000b0 c7 85 63 3d 70 6e 23 3d 6e 3e f0 3b ea ee 2b bc
       0.055547502 0.039900243 0.007331661 -0.010493973
0000c0 36 a4 54 3d 64 d9 04 3c 4d 8c 68 3a c1 28 3d ba
       0.051914416 0.008108471 0.0008871004 -0.00072158506
0000d0 dd e0 c1 3d 11 ab 60 3d 9f 39 93 3c ae 49 ec 3c
       0.094667174 0.05485064 0.017971812 0.028843727
0000e0 f3 c5 31 bd a1 ef 6b bd ee 5a 78 bd 7c 51 e3 bc
       -0.04340167 -0.057601575 -0.060633592 -0.027748816
0000f0 37 9e 5c bd e1 6a 8f 3d 90 63 5a bb 9c bb 02 3e
       -0.053861823 0.070028074 -0.0033323504 0.1276688
000100 59 a9 db 3a ce ea 85 bc 5e 80 e4 3c b5 54 68 3d
       0.0016758844 -0.016347315 0.027893241 0.056721408
000110 9f b5 63 3d 50 59 10 3d 57 3e 21 3d 7f 30 c9 3d
       0.05559313 0.035241425 0.039366093 0.09823703
000120 c0 11 85 bc a7 27 5f 3c 70 39 89 3d fe ff c1 bb
       -0.016243815 0.013620294 0.067004085 -0.005920409
000130 4a 17 ab 3a 35 f0 95 3c 64 ce af bc 67 aa f2 3c
       0.0013053205 0.018303016 -0.02146072 0.02962227
000140 ce a3 7b 3c f2 a8 79 3b a4 5c ae 3c 0c f1 21 3d
       0.015358878 0.0038095084 0.021284409 0.03953652
000150 0d 4e 07 bd 7a 86 b7 3c b4 ec 95 bb df 14 61 bd
       -0.03303342 0.02240299 -0.0045753364 -0.054951545
000160 38 90 e8 3d aa c6 4c 3c a9 0b 8f 3c b6 7f 4f bd
       0.113556325 0.012498537 0.017461615 -0.050658904
000170 de 56 44 ba d4 fa fa 3c 24 96 77 3d 04 c9 90 3d
       -0.0007489751 0.030637182 0.06044592 0.07069591
000180 75 77 0a bd 37 98 66 3c 74 84 a1 3c 89 08 82 3c
       -0.03380533 0.014074377 0.019716479 0.01587321
000190 e7 f7 62 3c b6 07 25 3d 74 1f 9f 3d c3 c9 13 3d
       0.01385305 0.040290557 0.07769671 0.036081087
0001a0 4c 8d a1 3c ee a5 d1 ba c3 ff 36 bd 82 62 59 bd
       0.019720696 -0.0015994885 -0.044677507 -0.05307246
0001b0 8f 0d 13 3d 19 2a 04 3d 0e 10 6a bd 20 da fe 38
       0.035901602 0.03226671 -0.057144217 0.00012152293
0001c0 94 f6 5b bd 05 d2 3d 3c a2 4d 1a 3b 2c bd 76 bd
       -0.053701952 0.011585717 0.0023544808 -0.060239002
0001d0 85 38 e6 3c 8f a1 51 bd 88 2a 8f bc 96 46 21 bc
       0.028103122 -0.051179465 -0.017476335 -0.009843489
0001e0 88 0c f1 3c 65 22 6b 3d 84 47 92 3d 73 e2 5e bc
       0.02942492 0.057405848 0.07142547 -0.013603794
0001f0 fd 80 e8 3c 30 3d 12 bc 15 0e 81 bd 8e c6 90 bd
       0.028381819 -0.008925721 -0.06301514 -0.07069121
000200 cd d7 bc 3d 8e bb 43 3d 7a 7e 36 bd 05 b8 85 3d
       0.09220848 0.047786288 -0.04455421 0.065292396
000210 98 96 99 3b 79 ac bb bc 1f 3c bc 3d 0b 85 b9 bc
       0.0046871416 -0.02290939 0.09191155 -0.022646448
000220 73 17 cc 3d d5 2f 40 bd 08 4c 13 bd 7d 2d c9 3d
       0.0996541 -0.046920616 -0.03596118 0.09823129
000230 f2 ae 56 bd 16 f4 23 bc 12 a2 29 bd db 93 31 bd
       -0.052412935 -0.010006925 -0.041414328 -0.043353897
000240 d9 19 52 bd 7b 51 8c 3d af c2 38 3c 1a 6c 78 3d
       -0.05129418 0.06851479 0.011276885 0.06064997
000250 7c c5 54 3c 33 16 0f bd 4c f5 1a 3d 64 9c ba 3d
       0.012986537 -0.03493328 0.03783159 0.091118604
000260 ea 2c 87 3d 1d b1 80 3d 75 41 96 3d 86 63 c3 3b
       0.066003636 0.06283782 0.07336704 0.005962792
000270 27 17 a1 3c d2 f9 9e b9 5b f9 03 3d 39 d4 d4 3d
       0.01966436 -0.0003032224 0.032220226 0.10392041
000280 bf d5 b5 3d 97 94 84 bc 24 a8 d1 3d b6 df 07 3d
       0.088786595 -0.016184134 0.102371484 0.03317233
000290 11 d4 c5 3d a5 80 49 3d 5a 01 88 3c 3f 42 19 3d
       0.09659589 0.04919495 0.016602207 0.037416693
0002a0 c0 e6 10 3d e4 47 ac bc 4a 60 73 3d 32 83 55 3d
       0.03537631 -0.021030374 0.059418 0.05212707
0002b0 e3 ff 90 3d 69 1b ed bc 41 78 b4 3d ec b1 78 3c
       0.070800565 -0.028943734 0.08811999 0.015179139
0002c0 0e da cc 3b 06 2e 42 3d 7b f7 9d 3d 8e c7 cc bb
       0.00625158 0.047407173 0.07713219 -0.0062493747
0002d0 ea 1f 0c 3e 56 12 58 bd b7 d6 51 3d 1b 5e 7e bb
       0.13684049 -0.05275186 0.05123016 -0.0038813415
0002e0 97 eb 1d 3d 32 97 6e 3d ff 00 aa 3d e6 c7 1b bd
       0.038554754 0.05824966 0.08300971 -0.038032435
0002f0 a5 51 86 3d 57 f1 d2 3c 80 93 b2 bb 0c ee b6 bc
       0.06558541 0.025749845 -0.0054497123 -0.022330306
000300 32 d7 e4 3b 11 18 e0 bc fb a2 5b 3d da c3 09 3d
       0.006983661 -0.027355226 0.053622227 0.033634044
000310 e2 a1 26 3d 45 8c 07 3d 08 cd f3 bc 3a bb 1e bd
       0.040681727 0.033092756 -0.029760852 -0.038752772
000320 83 f6 f6 bc c3 81 a9 3c 94 54 01 3e cc b8 00 bd
       -0.030146843 0.020691758 0.1262992 -0.031426236
000330 d6 ab 18 bc 21 f5 ba 3c 52 c8 13 bd a9 ca 8a 3d
       -0.009318313 0.022821965 -0.036079712 0.067769356
000340 94 98 c5 3d eb d6 62 3d 25 ad ab 3c c0 0d a0 3d
       0.096482426 0.055380743 0.020956585 0.078151226
000350 8f ce b9 3d 3c cf 5b 3d d0 1c a6 3d 2f ec 84 3d
       0.09072601 0.05366443 0.08110964 0.06490361
000360 2c 15 7c 3c 53 30 3a 3c 9a e5 46 3d a9 bf 58 3d
       0.015385907 0.01136406 0.04855881 0.052917156
000370 9d 9f ef bb 38 97 c1 3d e5 57 87 3d 5c 48 13 bd
       -0.0073127286 0.09452671 0.066085614 -0.03595768
000380 0f d6 54 bd 70 c6 7e 3c 69 ef 6d 3d 9b 49 17 bd
       -0.051961955 0.015550241 0.058089647 -0.03693543
000390 ad d3 e7 bb 78 f0 89 bc 4e 71 1b 3d 94 da c7 3c
       -0.0070747943 -0.016838297 0.037949853 0.024396218
0003a0 12 69 0c 3d f1 24 19 bd 4e 17 4d 3c 95 1f c8 bb
       0.03427989 -0.037388746 0.012517763 -0.0061072805
0003b0 8d 14 c3 bc 4e 21 51 3c bb ad 5f bd f4 07 17 3d
       -0.02381351 0.012764288 -0.05460904 0.03687282
0003c0 2e 2a af 3c f5 06 7b bc 81 a1 59 3d 05 60 12 bd
       0.021382418 -0.015321483 0.053132538 -0.035736103
0003d0 8f 6b 3a 3d 94 5d 19 bc 2d 1d 6e 3c 78 24 e7 3c
       0.045512732 -0.00936069 0.014533323 0.028215632
0003e0 38 d9 0b bd af 56 04 bc dd 2e 55 3b 90 56 1f 3d
       -0.034142703 -0.008077308 0.0032529153 0.03890091
0003f0 1b 2c 60 3d be b1 97 3d b0 5f e4 bc 7c 14 ec bc
       0.054729562 0.074069485 -0.027877659 -0.028818361

net.4.bias f4 [41]
000000 98 e6 5e 3d dc 6e 29 3d 66 09 14 3d ad 00 d9 bc
       0.05441913 0.04136549 0.036141776 -0.02648958
000010 82 50 05 bd da 4f e3 3c 0b 4f 66 3c eb 44 81 3d
       -0.03254748 0.027748037 0.014056931 0.06311973
000020 03 c8 1c bd be 43 2d 3d 5c f1 6c bc d4 88 b4 bc
       -0.038276684 0.042300932 -0.014461841 -0.022037901
000030 6c 20 03 bd 6c bd 23 bd c8 72 72 bd a7 70 70 bb
       -0.03201334 -0.03997557 -0.059191495 -0.003668824
000040 c2 81 5f 3d 5b 88 ba bb cc 5b 0e 3d cb 57 fd bc
       0.054567106 -0.0056925244 0.034755513 -0.030925652
000050 95 e0 6b 3d 76 d6 f4 3c 50 fe 81 bd ee 24 a9 3c
       0.057587225 0.02988742 -0.063473344 0.020647492
000060 fe 8a 0b bd 71 fc 96 3c 04 40 8a 3a 9b 39 9a 3c
       -0.0340681 0.01843092 0.0010547643 0.018826297
000070 8d 65 c6 bc b8 93 c8 bc fb 37 27 bd 57 cd c4 3c
       -0.024218345 -0.0244845 -0.04082487 0.024023695
000080 a3 4b b9 b8 c7 68 dc bb 30 7b f3 ba 80 39 57 bc
       -8.835576e-05 -0.0067263576 -0.0018576141 -0.013136268
000090 89 a1 47 bb 23 04 b1 bc a2 32 24 3d 72 2f 61 3c
       -0.0030461273 -0.021608418 0.04008735 0.013744222
0000a0 6c ca ee 3c
       0.029149257
