Tetris/tetris_vs_heuristic_hold_policy.pth (torch, 528885 bytes, 6 tensors)

net.0.weight f4 [256, 214]
0	0xbcac566a	-0.0210373
1	0xbd1f5cf2	-0.038907
2	0x3aa33dc0	0.0012454316
3	0x3c106670	0.0088134855
4	0xbbfb2f18	-0.007665526
5	0x3ca47b18	0.020078227
6	0xbc453478	-0.012036435
7	0x3b8f2390	0.004368253
8	0x3c2a4740	0.010392964
9	0x3d4e4f1a	0.050368406
10	0x3cb5d7c0	0.022197604
11	0x3cce61bc	0.025193088
12	0x3d0698fc	0.03286074
13	0xbd436132	-0.047700115
14	0xbd15049d	-0.036381353
15	0xbcf41bfa	-0.029798497
16	0xbb188a40	-0.0023275763
17	0x3cec00fc	0.028809063
18	0xbd36f70d	-0.0446692
19	0xbc4795c8	-0.012181707
20	0x3bb6c360	0.0055774897
21	0x3c39ced0	0.011340812
22	0xbccd1d92	-0.025038514
23	0xbca22407	-0.01979257
24	0x3d03e8e5	0.032204527
25	0xbc74a7a5	-0.014932548
26	0xbd964cb2	-0.07338847
27	0x3cd9cb30	0.026586145
28	0x3cb65824	0.022258826
29	0xbc435850	-0.011922911
30	0xbb857dd0	-0.004073836
31	0xb64b8000	-3.0323863e-06
32	0xbc01a0ec	-0.007911902
33	0xbc9bd3d2	-0.019021902
34	0xbd467ec5	-0.04846074
35	0xbcfcc4bd	-0.03085553
36	0xbce36baf	-0.027761308
37	0xbd7e5124	-0.0620891
38	0x3d6473c3	0.05577446
39	0xbcbc190e	-0.022961166
40	0x3cb31e9c	0.021865182
41	0xbcfefc56	-0.031126183
42	0x3b9d6f30	0.0048045143
43	0x3cfa238b	0.030534526
44	0xbd6a6312	-0.057223387
45	0x3cb2b796	0.021816056
46	0x3b308620	0.0026935413
47	0x3c4ca6f8	0.01249098
48	0x3d86035d	0.0654361
49	0xbc1696c4	-0.009191219
50	0x3b1c6880	0.0023865998
51	0xbcce7b09	-0.025205152
52	0xbc8ae1d9	-0.016953396
53	0xbda745fe	-0.08167647
54	0xbdc26226	-0.094913766
55	0x3d07ff3e	0.033202402
56	0xbcb38e32	-0.02191839
57	0xbd64a242	-0.055818804
58	0xbd8c97d0	-0.068648934
59	0xbd332515	-0.043736536
60	0x3d08ae52	0.03336937
61	0xbd750c48	-0.059826165
62	0x3d305127	0.043046143
63	0x3c9d16ba	0.019175876
64	0xbd9ea33a	-0.07745977
65	0x3b8eb343	0.0043548658
66	0xbdb59950	-0.08867133
67	0x3d2ba736	0.04190751
68	0xbd92092b	-0.07130655
69	0x3d716ec2	0.058943518
70	0xbd53113d	-0.05153011
71	0xbd87a8d7	-0.066240005
72	0xbd067491	-0.03282601
73	0xbc1ffe36	-0.009765198
74	0x3cd1ad3f	0.025595305
75	0x3a76acf8	0.00094099296
76	0x3ba57d58	0.0050503425
77	0x3d0baffe	0.034103386
78	0xbd070a02	-0.03296853
79	0x3b5a161f	0.0033277345
80	0x3d81d18c	0.06338796
81	0xbd0b2109	-0.03396705
82	0x3d49dca1	0.049282674
83	0x3d1908fc	0.037362084
84	0x3cbc9f44	0.023025163
85	0xbc222dcc	-0.009898614
86	0x3d2b719e	0.0418564
87	0x3d36e380	0.044650555
88	0x3c229645	0.009923522
89	0x3bf1c880	0.007378638
90	0x3ccb4b78	0.02481626
91	0xbd3d9ab1	-0.046290103
92	0x3d89ba7e	0.06725024
93	0xbcc71c04	-0.024305351
94	0xbd1279a6	-0.035760544
95	0x3d521478	0.05128905
96	0xbd3d211b	-0.04617415
97	0xbd83e1da	-0.06439562
98	0xbd79e6cb	-0.061011117
99	0x3d43c1f5	0.047792394
100	0x3d466f7e	0.04844617
101	0xbbab88c6	-0.0052348105
102	0x3d11e381	0.035617355
103	0xbd3960be	-0.045258276
104	0x3a977152	0.0011554158
105	0x3d7409c6	0.059579633
106	0xbd2106e2	-0.039313205
107	0xbda6221e	-0.08111976
108	0x3cc8ccce	0.024511721
109	0xbd266be5	-0.04063024
110	0xbc3823f2	-0.011239039
111	0xbc82c8e7	-0.015964938
112	0x3c6c318b	0.014416109
113	0x3d1cd4c7	0.038288858
114	0xbd857338	-0.06516117
115	0xbdc16f07	-0.09445005
116	0xbb61c273	-0.0034448176
117	0x3d51a64e	0.05118399
118	0xbd9e1b27	-0.07720023
119	0xbd028ffe	-0.031875603
120	0x3d81edd2	0.06344189
121	0x3c4704a3	0.012147102
122	0xbd9874be	-0.07444142
123	0x3d2e492c	0.04255025
124	0x3bb0498c	0.005379861
125	0xbd8a3502	-0.06748392
126	0x3dbed243	0.09317448
127	0xbd7f6d59	-0.06236014
128	0xbd2080d4	-0.03918536
129	0xbcbad796	-0.022807878
130	0x3d720a20	0.059091687
131	0x3d6108f5	0.054940183
132	0xbc196f55	-0.0093649225
133	0xbd10c4a1	-0.03534377
134	0xbd778bef	-0.060436185
135	0xbd902713	-0.07038703
136	0xbc98db4b	-0.018659255
137	0xbd0d9202	-0.034563072
138	0xbd387a1b	-0.045038324
139	0xbce6e802	-0.028186802
140	0x3d28e452	0.04123337
141	0xbcbfc819	-0.023410844
142	0xbd8f8099	-0.0700695
143	0x3ca94704	0.020663746
144	0xbd3f5c1c	-0.0467187
145	0xbc8cb044	-0.017173894
146	0xbc53d9f2	-0.01293038
147	0x3d2790a5	0.04090943
148	0xbd346ea3	-0.044050824
149	0xbd6979c0	-0.057000875
150	0xbd06bda9	-0.032895718
151	0xbd17664e	-0.0369628
152	0x3ccc02fc	0.024903767
153	0xbd35d0ff	-0.044388767
154	0xbc8c943d	-0.01716053
155	0x3c951443	0.018198138
156	0xbcadc98a	-0.021214265
157	0xbd948892	-0.07252611
158	0xbdab7e69	-0.0837372
159	0xbd51c5e5	-0.051214118
160	0xbbad6954	-0.005292097
161	0xbda5d60b	-0.08097466
162	0xbcfcdb5a	-0.030866314
163	0x3d3d4058	0.04620394
164	0xbd1c7a25	-0.038202424
165	0x3d121516	0.03566464
166	0xbc498afc	-0.012301203
167	0xbde7d35a	-0.11319609
168	0xbc8e8682	-0.017398123
169	0xbc01584a	-0.007894585
170	0xbc89c19c	-0.016815953
171	0xbce9e3ce	-0.028551009
172	0xbacde625	-0.0015708847
173	0x3cb839e8	0.02248855
174	0x3c2c942d	0.010533375
175	0xbcbd6881	-0.02312112
176	0xbdafb55f	-0.08579516
177	0x3d0dc3c5	0.03461053
178	0x3d70de07	0.05880549
179	0xbce0f4fb	-0.027460566
180	0x3c33ad64	0.0109666325
181	0x3d4579e9	0.048211966
182	0x3b5c6800	0.0033631325
183	0xbd78d64c	-0.060751244
184	0x3bd26f00	0.0064219236
185	0x3daa9142	0.08328487
186	0xbae52bca	-0.0017484364
187	0xbc2a3b9b	-0.010390188
188	0x3d416254	0.047212914
189	0x3d009be5	0.031398673
190	0x3ddadd36	0.10686724
191	0x3dbac8c5	0.09120325
192	0x3dbfb987	0.093615584
193	0x3c8355f4	0.016032197
194	0x3c687167	0.0141871935
195	0x3dd24790	0.10267556
196	0x3ddd0bca	0.10793264
197	0xbc0d0731	-0.008607672
198	0x3d2786b0	0.040899932
199	0xbd6af31f	-0.057360765
200	0x3d153b2c	0.036433384
201	0x3d1eb453	0.03874619
202	0x3d85cac2	0.065328136
203	0x3ba598fd	0.005053638
204	0xbd0787a9	-0.03308836
205	0xbd40cfac	-0.04707305
206	0xbd176fe6	-0.03697195
207	0xbdabf090	-0.08395493
208	0x3dbce37d	0.092230774
209	0x3cacec92	0.0211089
210	0x3d8538ab	0.06504949
211	0xbcca76bd	-0.024714822
212	0x3dabd97a	0.0839109
213	0x3e2b6f3d	0.16741653
214	0x3ccf9ab4	0.025342323
215	0xbd81c20b	-0.06335839
216	0xb9a25100	-0.00030959398
217	0x3d756de6	0.05991926
218	0x3ab17400	0.0013538599
219	0x3d134b6c	0.0359606
220	0xbd21135b	-0.0393251
221	0xbd3bd41e	-0.045856588
222	0x3d8a4b2b	0.067526184
223	0x3d61f1a8	0.055162102
224	0xbbafd2d0	-0.005365707
225	0x3d7223ae	0.059116058
226	0x3ac89340	0.0015302673
227	0x3bb6d7f0	0.005579941
228	0xbd86079c	-0.0654442
229	0xbd84a677	-0.06477063
230	0x3cbc03bc	0.022951
231	0x3c311a28	0.010809459
232	0xbc0397dc	-0.008031812
233	0x3d6284cc	0.055302426
234	0xbbd76158	-0.0065728836
235	0x3d817774	0.06321612
236	0x3c8fe75e	0.01756638
237	0x3a2fa780	0.00067006797
238	0xbd167cf9	-0.036740277
239	0xbd762833	-0.06009693
240	0x3d44cccc	0.048046872
241	0xbc0e7b9b	-0.008696462
242	0xbc171313	-0.009220856
243	0xbc1a55b0	-0.009419844
244	0x3c96d4e4	0.018412061
245	0x3d1cbd6e	0.03826659
246	0x3d7e1f9e	0.06204187
247	0x3ba91e85	0.005161109
248	0xbd87283c	-0.06599471
249	0x3cf3b068	0.029747203
250	0x3c8deba7	0.017324282
251	0x3bbe6efa	0.0058115693
252	0xbd4d4af5	-0.050120313
253	0x3ccf52cd	0.025308037
254	0xbbbaa505	-0.0056959414
255	0x3da592bf	0.0808463

net.0.bias f4 [256]
0	0x3dd03e5a	0.101681426
1	0xbd3bccf7	-0.045849767
2	0xbc39ff47	-0.011352367
3	0x3e048911	0.12942912
4	0xba21b3ce	-0.00061684556
5	0x3d82b802	0.06382753
6	0x3cf2cf23	0.029639786
7	0x3e07f3fe	0.1327667
8	0xbd50851f	-0.050908204
9	0x3def8690	0.11695588
10	0xbca7f43d	-0.020502204
11	0x3d7ed507	0.062214877
12	0x3cdb7bfc	0.026792519
13	0x3e10e873	0.14151172
14	0x3e06861c	0.13137096
15	0xbb052a9f	-0.0020319594
16	0xbd519bb1	-0.05117387
17	0x3dbb9b95	0.09160534
18	0xbcf97a42	-0.030453805
19	0x3de08e20	0.10964608
20	0x3d356551	0.044286076
21	0x3dbd7596	0.09250943
22	0x3dfdba1f	0.123890154
23	0x3e0eaa77	0.13932215
24	0x3d0d05d7	0.034429397
25	0x3c7f8445	0.0155955
26	0xbdac85e9	-0.08423979
27	0x3d5e86e9	0.05432788
28	0x3da20221	0.07910562
29	0xbd775e88	-0.060392886
30	0x3d81e9b5	0.06343404
31	0xbd5dff6a	-0.05419866
32	0x3dfa3782	0.122176185
33	0x3d04f2bf	0.032458063
34	0x3df787a1	0.12086416
35	0xbdb666c8	-0.08906323
36	0x3daa4abc	0.08315036
37	0xbce91bdf	-0.028455673
38	0x3df419e0	0.11918998
39	0x3e297fd7	0.16552673
40	0x3e273bbd	0.16331382
41	0x3dc310f8	0.09524721
42	0x3db3dcd7	0.08782356
43	0xbd01127b	-0.031511765
44	0xbb895496	-0.0041909916
45	0x3d29d895	0.041466314
46	0x3e034170	0.12817931
47	0xbd0ddede	-0.03463637
48	0x3c037570	0.008023605
49	0x3d8d2ff3	0.06893911
50	0xbcdbec59	-0.026846098
51	0x3cacb9cb	0.021084687
52	0xbd105409	-0.035236392
53	0xbcbfd4ed	-0.02341696
54	0xbdaa8fad	-0.08328185
55	0x3b9aeff7	0.004728313
56	0x3e0af756	0.13570914
57	0x3d035d6e	0.032071523
58	0x3df48592	0.11939539
59	0xbabf1bab	-0.0014580389
60	0x3d7000dc	0.05859457
61	0xbd8800cb	-0.06640776
62	0xbda6c224	-0.08142498
63	0x3c8bc838	0.017063245
64	0x3dc0d30e	0.094152555
65	0xbda69f20	-0.081358194
66	0xbd3d0ab3	-0.04615278
67	0x3dcf596f	0.1012448
68	0x3e0146c3	0.1262465
69	0x3c032a13	0.008005637
70	0xbd029585	-0.031880874
71	0x3dd5523a	0.10416074
72	0x3e236cb4	0.15959436
73	0xbd03b412	-0.03215415
74	0x3da6d047	0.081451945
75	0x3d1447c1	0.036201242
76	0x3e085f5d	0.13317628
77	0x3e1e7fd0	0.15478444
78	0x3e0dc29a	0.13843766
79	0x3d970862	0.07374646
80	0xbd7c2a04	-0.061563507
81	0x3cab7503	0.020929819
82	0x3de3c454	0.11121431
83	0xbbe4702c	-0.0069713797
84	0x3df18ea2	0.11794783
85	0x3dcb7a6d	0.0993546
86	0xbdb61c23	-0.088920854
87	0x3dd4e8f2	0.10395993
88	0x3defeeb3	0.1171545
89	0xbd9c5834	-0.07634011
90	0xbd8ce0e6	-0.068788335
91	0x3d5c4872	0.053780027
92	0x3dbd27f2	0.092361346
93	0x3d213a5c	0.039362296
94	0x3e08fe3f	0.13378237
95	0x3d3d4f4d	0.046218205
96	0x3e2c2557	0.16811119
97	0x3d9e2225	0.07721356
98	0x3e0e0b45	0.13871486
99	0x3e0dc2a2	0.13843778
100	0xbdac2c49	-0.08406884
101	0x3d68e6a3	0.056860577
102	0x3dd65a7a	0.10466476
103	0xbd6ec652	-0.0582946
104	0x3d8ca8f9	0.068681665
105	0x3da91a5e	0.08256982
106	0xbc049605	-0.008092408
107	0x3d54df16	0.051970564
108	0x3dfd4320	0.12366319
109	0xbd9d5573	-0.07682314
110	0x3de04ad3	0.109517716
111	0x3d56ff5b	0.05248962
112	0x3d7ec0c1	0.062195543
113	0x3d023053	0.031784367
114	0xbdaac598	-0.08338469
115	0x3c4f69ab	0.012659471
116	0x3d75f32b	0.060046356
117	0xbd654599	-0.055974577
118	0xbd279107	-0.040909793
119	0x3dfc0176	0.12304966
120	0x3d98fe68	0.07470399
121	0xbb925ad7	-0.0044663954
122	0x3e141f2b	0.14465015
123	0x3db37599	0.08762664
124	0x3c4be98c	0.012445819
125	0x3d6b467b	0.057440262
126	0x3d883d52	0.06652321
127	0x3c370c7c	0.01117241
128	0x3de51fca	0.11187704
129	0x3d4035b7	0.046926226
130	0x3d0ee18f	0.03488308
131	0xbc3f957f	-0.0116933575
132	0xbd146ac7	-0.036234643
133	0xbcd36221	-0.025803627
134	0x3d4f3b11	0.05059344
135	0x3dd57f7c	0.10424706
136	0x3e2179be	0.15769097
137	0xbd7d5cf0	-0.06185621
138	0xbc6910ac	-0.014225166
139	0x3cdbe45b	0.026842287
140	0xbce6b8be	-0.028164264
141	0xbd81e612	-0.063427106
142	0x3d719be8	0.058986574
143	0x3e150830	0.14553905
144	0xbc330731	-0.0109270075
145	0xbcc7e162	-0.024399463
146	0xbdb4ee39	-0.088345
147	0x3dc348d0	0.09535372
148	0x3d9ccb44	0.07655957
149	0xbd6b832c	-0.057498142
150	0x3cb4cbbc	0.022069804
151	0xbd448b8f	-0.047984656
152	0xbdc736a9	-0.097272225
153	0x3deec684	0.116589576
154	0xbc8373bc	-0.016046397
155	0x3daa53ca	0.08316763
156	0x3dac57d7	0.084151916
157	0x3d046b7c	0.032329068
158	0x3dbb3957	0.09141796
159	0x3ddb1753	0.10697808
160	0x3d1c307b	0.038132172
161	0x3d898399	0.067145534
162	0xbd01227c	-0.031527027
163	0x3d4db030	0.050216854
164	0x3e119564	0.14217144
165	0x3dbae2d3	0.091252945
166	0xbcb6c2b8	-0.022309646
167	0x3d2ee604	0.04269983
168	0xbc946c69	-0.0181181
169	0x3d670523	0.056401383
170	0x3dde0a32	0.10841788
171	0xbd049205	-0.032365818
172	0x3d464d69	0.048413668
173	0xbc601326	-0.01367644
174	0x3e310008	0.17285168
175	0xbd0d81fb	-0.034547787
176	0x3d18527c	0.03718804
177	0x3c89fe05	0.016844759
178	0xbc848cfd	-0.01618051
179	0x3e16687e	0.14688298
180	0x3c984494	0.018587388
181	0x3c2bf314	0.010494966
182	0x3c84d52c	0.01621493
183	0x3dbc2e5e	0.09188531
184	0x3dce2511	0.100656636
185	0xbd5df984	-0.054193035
186	0x3d119fd9	0.035552833
187	0xbc9f6d12	-0.019461188
188	0x3dba26ad	0.09089408
189	0x3d9fd14a	0.078035906
190	0x3dd96808	0.106155455
191	0x3e1413cc	0.14460677
192	0x3cf0dcf3	0.029402232
193	0xba0d97c9	-0.0005401341
194	0xbcf8e5cb	-0.030383011
195	0x3d08ad79	0.03336856
196	0x3e15f4dc	0.14644188
197	0x3de7daf4	0.11321059
198	0x3cfc149c	0.030771546
199	0xbdbf20f1	-0.09332455
200	0x3d8ae9d2	0.06782879
201	0xbc536a21	-0.012903721
202	0xbccf284e	-0.025287773
203	0x3d4bbde6	0.04974165
204	0xbbb41ba8	-0.005496461
205	0x3bdb264f	0.0066879163
206	0xbcf28417	-0.029604001
207	0xbaa7a094	-0.0012788945
208	0x3cc48c7d	0.023992771
209	0xbc1d8518	-0.009614252
210	0x3dabdd27	0.08391791
211	0x3db4cbae	0.08827911
212	0x3de4fcf6	0.11181061
213	0x3d86876d	0.06568799
214	0x3dbf4d42	0.09340908
215	0x3d0cfd22	0.034421094
216	0x3c1f5488	0.009724744
217	0x3e014333	0.1262329
218	0x3dbd3973	0.09239473
219	0x3dd0e5e1	0.10200096
220	0x3de63ca8	0.11242038
221	0x3d553a31	0.05205745
222	0x3d52e77b	0.05149029
223	0x3dee0b74	0.11623278
224	0x3bc4740f	0.0059952806
225	0xbda0d4c7	-0.07853084
226	0x3dad9335	0.08475343
227	0xbce6de75	-0.028182248
228	0x3d9bcd41	0.076075085
229	0x3e1a2e9a	0.1505684
230	0x3cdc8d85	0.02692295
231	0x3db85c71	0.09002007
232	0xbcf5ad3c	-0.029989831
233	0x3c08082d	0.0083027305
234	0x3d8affc7	0.06787067
235	0x3ccba4e6	0.024858903
236	0xbd035f73	-0.03207345
237	0xbd81ea06	-0.063434646
238	0xbd5c93fa	-0.05385206
239	0x3dbb69c1	0.0915103
240	0xbd386a20	-0.045023084
241	0xbdc1c5e9	-0.094615765
242	0xbd377f30	-0.04479903
243	0x3de39a07	0.11113363
244	0xbd095b6b	-0.03353445
245	0x3d1fbdfe	0.03899955
246	0x3d351999	0.044213865
247	0x3e17b7ba	0.1481618
248	0x3d9dbff4	0.07702628
249	0x3dfc50aa	0.12320073
250	0x3d1ce770	0.038306653
251	0x3e0cc356	0.1374639
252	0x3d4ccba0	0.04999888
253	0x3d0cc417	0.034366693
254	0x3c8fa361	0.01753396
255	0x3e0e1a46	0.1387721

net.2.weight f4 [256, 256]
0	0xb99376e0	-0.00028126594
1	0x3c16e5dd	0.009210077
2	0x3d96d38f	0.0736457
3	0x3da080d9	0.07837076
4	0x3d44bd22	0.048031934
5	0x3dd043b5	0.10169164
6	0x3dc25a22	0.09489848
7	0x3ce3ac58	0.02779214
8	0x3c86e5c0	0.016466975
9	0x3d7bfce7	0.061520483
10	0x3d8da15d	0.06915543
11	0x3d0d1567	0.03444424
12	0x3b02ae0d	0.0019940168
13	0x3d4e44c3	0.050358545
14	0x3d94250a	0.07233627
15	0x3cd77ee9	0.026305633
16	0xbb4f5a81	-0.0031639638
17	0x3cd49a78	0.025952563
18	0xbb8319b5	-0.0040008673
19	0x3d890a90	0.06691468
20	0x3bf29119	0.007402551
21	0x3cd78768	0.026309684
22	0x3deb4f6f	0.1148976
23	0x3af6298f	0.0018780696
24	0x3cade71a	0.021228362
25	0x3d422589	0.047399078
26	0x3b35304a	0.002764719
27	0x3d6e1416	0.058124624
28	0x3d6b8dc9	0.057508264
29	0x3d3171b8	0.04332134
30	0x3d433e8e	0.04766708
31	0xbcce580b	-0.025188467
32	0x3d77a389	0.060458694
33	0x3d048189	0.032350097
34	0x3b112090	0.0022144653
35	0xbd03f43b	-0.03221534
36	0x3d78b626	0.060720585
37	0x3cd20def	0.02564141
38	0x3dd0226a	0.10162814
39	0x3d886f9f	0.06661915
40	0x3cd0817a	0.025452364
41	0x3d4c73c9	0.04991511
42	0x3bcfd97f	0.006343066
43	0x3c929ce5	0.017897079
44	0x3cfccb74	0.030858733
45	0x3d9e63eb	0.077339016
46	0x3d726d94	0.059186533
47	0xbc1b189a	-0.009466315
48	0x3d433abd	0.04766344
49	0x3df0d09f	0.11758541
50	0xbc91936d	-0.017770493
51	0xbd89f991	-0.06737054
52	0x3c5420d3	0.012947279
53	0xbd285d91	-0.041104857
54	0x39fc500d	0.00048124828
55	0x3cf3a2df	0.029740749
56	0x3dc8d740	0.09806681
57	0x3d019494	0.031635836
58	0x3dccf9d3	0.10008588
59	0x3cf79f13	0.03022722
60	0x3d867110	0.06564534
61	0xbce81f2b	-0.028335175
62	0x3d88b30a	0.06674774
63	0x3db16bbd	0.086631276
64	0x3d92a330	0.07160032
65	0x3aaac5ac	0.0013028882
66	0x3d814e80	0.06313801
67	0x3da93071	0.082611926
68	0x3dd20200	0.10254288
69	0x3d6e08a4	0.05811371
70	0x3b5d4462	0.0033762683
71	0x3d96db13	0.07366004
72	0x3dc4f6aa	0.0961736
73	0x3c87d870	0.016582698
74	0x3dd1c21a	0.102421
75	0xbcb29e60	-0.021804035
76	0x3d1bdde0	0.038053393
77	0x3d611b33	0.05495758
78	0x3ddf057e	0.108897194
79	0x3d8f241b	0.069893084
80	0x3d660786	0.05615952
81	0x3d1fa9d5	0.038980324
82	0x3dbeffcf	0.09326135
83	0xbd15e9fc	-0.036600098
84	0x3d23e790	0.040015757
85	0x3d42d6f7	0.047568288
86	0xbc38f894	-0.011289734
87	0x3d7be922	0.06150163
88	0x3c5e7d11	0.013579623
89	0x3d0df435	0.034656722
90	0x3d401032	0.046890445
91	0x3d9ebb9b	0.07750627
92	0x3c086bc1	0.008326472
93	0x3dba37da	0.09092684
94	0xbc80d458	-0.015726253
95	0x3de32fe6	0.1109312
96	0x3d18d621	0.037313584
97	0x3d117f1b	0.035521608
98	0x3cb7efac	0.022453152
99	0x3d97202b	0.073791824
100	0xbb82e39f	-0.0039944197
101	0x3cb744fb	0.02237176
102	0xbce0a8a4	-0.027424164
103	0xbd19200d	-0.03738408
104	0x3cbbed25	0.022940228
105	0x3db87c2a	0.090080574
106	0x3cfe0385	0.031007538
107	0x3d0da190	0.034577906
108	0x3d753ae2	0.05987061
109	0x3c89831e	0.016786154
110	0x3c9668b7	0.018360479
111	0xbcd2fa2a	-0.025754053
112	0x3caeac69	0.021322446
113	0xbd149e3c	-0.036283717
114	0x3cb1b14a	0.021690983
115	0x3c963173	0.018334126
116	0x3debe98b	0.11519154
117	0xbd06e77e	-0.032935612
118	0xbdd9276e	-0.10603224
119	0x3df032c9	0.117284365
120	0x3de3a87c	0.1111612
121	0xb9eb2578	-0.0004485061
122	0x3dcd5142	0.10025264
123	0x3d36d0a6	0.044632576
124	0x3ccd6032	0.025070284
125	0x3de5a065	0.112122335
126	0x3d62787f	0.055290695
127	0xbc5931d8	-0.013256513
128	0x3dc8f037	0.09811442
129	0x3dc967d1	0.098342545
130	0x3d2f508e	0.042801432
131	0x3dde5390	0.10855782
132	0x3c5aa594	0.013345141
133	0xbd595e14	-0.053068236
134	0xbc918fc7	-0.017768754
135	0x3d4cb50c	0.049977347
136	0x3dc14281	0.09436513
137	0x3c496f25	0.012294565
138	0xbcd88d8d	-0.026434684
139	0xbc90c637	-0.017672641
140	0x3c8e3a97	0.017361922
141	0x3b4e6821	0.003149517
142	0x3d8a93a4	0.067664415
143	0x3d68e789	0.056861434
144	0xbd7cdfb2	-0.06173677
145	0xbd30ea0b	-0.04319195
146	0x3c875370	0.016519278
147	0x3d842abd	0.06453464
148	0x3d264745	0.04059531
149	0x3b9fe437	0.0048795003
150	0x3dc85241	0.09781314
151	0x3d3e3cc1	0.04644466
152	0x3d78f9b6	0.060785018
153	0x3d80729b	0.06271859
154	0xbcc2432f	-0.023713676
155	0x3de80d6d	0.11330686
156	0x3daa9a2f	0.083301894
157	0x3c006123	0.007835659
158	0x3dac7d7b	0.08422371
159	0x3b610f15	0.0034341265
160	0x3c513747	0.012769527
161	0xbb203b94	-0.0024449574
162	0xbcae2fab	-0.021262964
163	0x3d4b2272	0.049593396
164	0x3d49961d	0.049215425
165	0xbbe19f79	-0.0068854657
166	0xb9ba3cfa	-0.00035522116
167	0x3cf6591a	0.030071784
168	0xbc7c5123	-0.015400204
169	0x3d4924f8	0.04910752
170	0x3aea3945	0.0017869851
171	0xbca7a741	-0.020465495
172	0x3c63f89c	0.013914254
173	0x3d340d20	0.04395783
174	0x3dad8aeb	0.08473762
175	0x3d027d7d	0.031857956
176	0xbcb9658c	-0.02263143
177	0x3d9886e9	0.07447607
178	0x3d9aa607	0.075511985
179	0x3de6f5d0	0.11277354
180	0x3c44ce48	0.012012072
181	0x3dba3685	0.0909243
182	0x3d3eabc5	0.04655053
183	0xbce9561e	-0.028483447
184	0x3dbbb350	0.091650605
185	0x3d87d951	0.06633247
186	0x3db7494a	0.08949526
187	0x3d4dab5c	0.05021225
188	0xbbec35f3	-0.0072085797
189	0x3c841d92	0.016127381
190	0x3d0ee448	0.034885675
191	0x3dd74ee3	0.10513093
192	0x3d8dc4c8	0.06922299
193	0x3da43f94	0.08019939
194	0xbc844067	-0.01614399
195	0x3d1cfafb	0.03832529
196	0x3dd2860a	0.10279472
197	0x3d9d0853	0.07667603
198	0x3e13a87f	0.14419745
199	0xbcc602a9	-0.02417119
200	0x3d57286a	0.052528776
201	0x3d0f16f7	0.03493401
202	0xbcef5611	-0.029215844
203	0x3d442bc7	0.04789331
204	0x3c1a2d0c	0.009410154
205	0xbcdf25f2	-0.027239773
206	0x3d5cf4e5	0.053944487
207	0xbb819d37	-0.003955509
208	0xbce772d0	-0.028252989
209	0xbb334824	-0.0027356232
210	0x3d8ce21c	0.068790644
211	0x3de3949b	0.111123286
212	0x3d2758d8	0.040856212
213	0x3ccd3cdc	0.025053434
214	0x3d552f5d	0.052047122
215	0x3d07068f	0.03296524
216	0x3d793e89	0.060850654
217	0x3c5151a1	0.0127758095
218	0x3d41a711	0.047278468
219	0xbd0d944e	-0.034565262
220	0x3d865209	0.06558616
221	0x3d5ce834	0.053932384
222	0x3cac77cb	0.021053215
223	0x3d113c97	0.035458174
224	0x3dced868	0.1009987
225	0x3ca35bde	0.019941267
226	0x3d9cd94e	0.07658635
227	0x3dae524c	0.08511791
228	0x3cf12564	0.029436775
229	0x3db95a1b	0.090503894
230	0x3d7e82dc	0.062136516
231	0x3d3682d9	0.04455838
232	0xbb419afc	-0.002954184
233	0xbbb4324d	-0.0054991604
234	0x3cafc047	0.02145399
235	0x3d778182	0.060426243
236	0x3d9bc98e	0.07606803
237	0x3d2edd91	0.04269177
238	0xbc6966b4	-0.014245678
239	0xbbbbbe0f	-0.005729444
240	0x3c65ce04	0.014026169
241	0x393e4c6c	0.00018148281
242	0xbd219b65	-0.039454836
243	0x3dcef8c3	0.10106041
244	0x3cad6034	0.021164037
245	0x3c296304	0.010338549
246	0x3d9eed9b	0.077601634
247	0x3d91e916	0.07124536
248	0x3d1a2e20	0.037641644
249	0x3df93435	0.12168161
250	0x3c9950f4	0.01871536
251	0x3d6ca258	0.05777201
252	0x3e02ef97	0.12786709
253	0xbbfac44b	-0.0076527945
254	0x3d8abbf3	0.0677413
255	0x3d5a56b1	0.05330533

net.2.bias f4 [256]
0	0x3ddd954f	0.10819494
1	0xbc0918ea	-0.008367756
2	0xbb862483	-0.004093708
3	0xbce84d21	-0.02835709
4	0xbb6aa5ac	-0.0035804315
5	0xbd6ef95c	-0.058343276
6	0xbd34f169	-0.04417554
7	0xbd6764df	-0.056492683
8	0x3c12b114	0.0089533515
9	0x3d983686	0.074322745
10	0x3ce864da	0.028368402
11	0x3ca44e8a	0.020056982
12	0xbd8cbfbc	-0.06872508
13	0xbd07fa7b	-0.03319786
14	0xbd59d767	-0.05318394
15	0x3dafc818	0.08583087
16	0x3d8eb075	0.0696725
17	0xbcf9adda	-0.030478407
18	0x3dcc64c3	0.09980156
19	0xbd7b9e38	-0.061430186
20	0x3b0d450b	0.0021556045
21	0x3bbb1585	0.0057093524
22	0x3df3f8bc	0.11912677
23	0xbd2a23d8	-0.04153809
24	0x3d1cc3af	0.038272556
25	0xbcbe0cf4	-0.023199536
26	0xbc99875a	-0.018741298
27	0x3a44a41a	0.00075012597
28	0xbcfdfdaa	-0.031004746
29	0xba36d3cc	-0.0006974309
30	0x3dfe00c2	0.12402488
31	0xbd749ea5	-0.059721608
32	0xbbd6ad5b	-0.0065514273
33	0x3d83136e	0.0640019
34	0x3c113fd4	0.0088653155
35	0x3bd45d2c	0.0064808335
36	0xba823243	-0.0009933192
37	0x3de9c726	0.11414938
38	0xbd1e2a5e	-0.038614623
39	0xbd08caaa	-0.0333964
40	0xbd470dd0	-0.048597157
41	0xbd05738f	-0.03258091
42	0x3c770f9c	0.015079405
43	0x3d18dce0	0.037320018
44	0xbd3760f2	-0.04477019
45	0xbd35e7d4	-0.04441054
46	0xbd26acd5	-0.04069217
47	0xbd9960d7	-0.07489174
48	0xbd1edc8c	-0.03878455
49	0xbce15476	-0.027506094
50	0x3de23dfd	0.110469796
51	0xbca2deef	-0.019881694
52	0xbd946840	-0.072464466
53	0x3dc835fd	0.097759224
54	0xbd5e1fdd	-0.054229606
55	0xbd6664b1	-0.05624837
56	0xbd150674	-0.036383107
57	0x3ddf63e3	0.10907724
58	0x3db2fa92	0.08739199
59	0x3c8a7afc	0.016904347
60	0x3cb90bf6	0.022588711
61	0x3d9772af	0.07394921
62	0xbc09778e	-0.00839032
63	0xbcbb425a	-0.022858787
64	0xbd2dbb64	-0.042415038
65	0x3cdc4a4d	0.026890898
66	0x3db1907c	0.08670136
67	0x3babbfce	0.0052413708
68	0xbd68b9f5	-0.056817967
69	0xbd20857a	-0.039189793
70	0xbc79cc28	-0.015246429
71	0x3d99cf05	0.07510189
72	0x3de79789	0.113082
73	0x3d8f3f7a	0.06994529
74	0x3db91d9b	0.0903885
75	0xbcd9136c	-0.026498519
76	0xbcfe2b99	-0.031026648
77	0xbc05a53a	-0.008157069
78	0x3df55532	0.1197914
79	0xbd618552	-0.055058785
80	0xbd6f2a77	-0.058390107
81	0xbd13d7e5	-0.036094565
82	0xbd3eaf4c	-0.046553895
83	0xbd25e61b	-0.04050265
84	0x3dda08f1	0.10646237
85	0x3dc2abdf	0.09505438
86	0x3d97b25d	0.07407067
87	0xbd5e4985	-0.054269332
88	0xba9673a0	-0.0011478551
89	0xbd270156	-0.04077276
90	0x3db07084	0.08615211
91	0x3bf03075	0.0073299953
92	0xbd7c7b6e	-0.06164115
93	0x3b4b4b9a	0.0031020404
94	0x3d7ddce8	0.06197825
95	0x3d739184	0.059464946
96	0x3d0dfc92	0.034664698
97	0xbd5bbf15	-0.053649027
98	0x3cc8c039	0.024505721
99	0xbd7a00ea	-0.061036028
100	0xbd89835e	-0.067145094
101	0x3cb3678e	0.021899965
102	0xbd7d00b2	-0.06176824
103	0xbcf02f4f	-0.029319433
104	0xbbca8040	-0.0061798394
105	0x3dd953a0	0.10611653
106	0xbc246ed0	-0.010036185
107	0xbd6709a5	-0.056405682
108	0xbc09bbec	-0.0084066205
109	0xbb96f8c1	-0.0046072905
110	0x3bc2493f	0.005929142
111	0xbd59cced	-0.053173948
112	0x3cc5b546	0.02413429
113	0x3dc4d4e4	0.09610918
114	0xbd3c4716	-0.04596623
115	0xbd2b5ae5	-0.04183473
116	0x3c059d6b	0.008155207
117	0x3d684303	0.056704532
118	0x3d67a742	0.056555994
119	0xbd099f49	-0.03359917
120	0x3cd6ec81	0.02623582
121	0xbcbcfdbc	-0.023070209
122	0x3dd4d422	0.103920236
123	0xbd0169ff	-0.031595226
124	0xbd9c387e	-0.076279625
125	0x3baf6b5b	0.005353374
126	0x3dd83946	0.10557799
127	0x3dbdeb06	0.09273343
128	0x3d1ef14b	0.038804334
129	0xbd090f12	-0.033461638
130	0xbce5341f	-0.027978955
131	0x3cc69b85	0.02424408
132	0x3d2ed41b	0.04268275
133	0x3c6a5aa9	0.014303842
134	0x3deb46e6	0.11488132
135	0x3c9b5a14	0.018963851
136	0x3cbf1f92	0.023330484
137	0x3d7b68ab	0.061379116
138	0x3cf3b740	0.029750466
139	0x3d41a9ff	0.04728126
140	0xbc28f56b	-0.010312418
141	0xbd5791d6	-0.052629314
142	0xbc70c4c8	-0.014695354
143	0xbc2c00c5	-0.01049823
144	0x3d05ba3f	0.03264832
145	0x3c751c59	0.014960372
146	0xbc945f8b	-0.018111965
147	0xbd790461	-0.06079519
148	0xbd1061ec	-0.035249636
149	0x3cc226aa	0.023700077
150	0x3d9cce5d	0.07656548
151	0x3cffcbe7	0.031225158
152	0xbd9216fc	-0.0713329
153	0x3d6a8778	0.0572581
154	0x3be38a59	0.0069439826
155	0xbcff9cfa	-0.031202782
156	0xbd551c94	-0.052029207
157	0x3da6c6fc	0.08143422
158	0x3ce81fcd	0.028335476
159	0xbd84be09	-0.06481559
160	0xbd09650a	-0.033543624
161	0xbd4ead26	-0.050458096
162	0x3d37c5fd	0.04486655
163	0xbba08b72	-0.0048994357
164	0x3dfdc05c	0.12390205
165	0xbcd74cea	-0.026281793
166	0x3dbbace5	0.091638364
167	0x3de54dfa	0.111965135
168	0xbd94ef24	-0.07272175
169	0xbd5e0fa7	-0.054214146
170	0xbc13e203	-0.009026053
171	0x3dcdaa6f	0.10042273
172	0xbc1bb3e3	-0.009503338
173	0xbcafbb28	-0.021451548
174	0x3c013da1	0.007888229
175	0x3b156d3a	0.00228007
176	0x3d02b684	0.03191234
177	0x3da26aaa	0.07930501
178	0xbd380cf7	-0.04493424
179	0xbccf0328	-0.02527006
180	0xbd806da0	-0.06270909
181	0x3db512ad	0.08841453
182	0xbd81f01e	-0.06344627
183	0x3d8e8881	0.0695963
184	0x3e017ebf	0.12646006
185	0xbbbce9a2	-0.005765156
186	0x3d226b25	0.039652962
187	0x3cef811a	0.029236365
188	0xbc439975	-0.0119384425
189	0x3da33e70	0.079708934
190	0x3d43efb5	0.047836024
191	0xbd364aa6	-0.044504784
192	0xbcf38c43	-0.029729968
193	0x3d137ec9	0.036009584
194	0xbce3a551	-0.02778879
195	0xbd5f1265	-0.0544609
196	0x3c9e488e	0.019321706
197	0xbd3a8bcc	-0.045543477
198	0x3df0f437	0.1176533
199	0xbcf2363c	-0.029566877
200	0x3aa03650	0.0012223218
201	0x3d9e7947	0.077379756
202	0xbd83f3f3	-0.06443014
203	0x3d39a3a8	0.04532209
204	0x3da2373a	0.0792069
205	0x3ccf85bb	0.025332322
206	0xbd11aeb5	-0.035567004
207	0xbc370fbd	-0.011173186
208	0x3dd7b34c	0.10532245
209	0x3cce0245	0.025147567
210	0xbbedd326	-0.007257837
211	0x3d9f05bc	0.077647656
212	0x3d1b5d48	0.037930757
213	0xbd3e19b3	-0.046411227
214	0xbd032b67	-0.032023814
215	0xbceda912	-0.029011283
216	0x3d6feaac	0.05857341
217	0xbcd16929	-0.02556284
218	0xbd2c60ee	-0.042084627
219	0x3c222e59	0.009898745
220	0xbd7a8d3b	-0.061169844
221	0x3dd84970	0.10560882
222	0xbd8bd873	-0.06828394
223	0xbcd44273	-0.025910592
224	0x39ad8d48	0.00033102394
225	0x3c8a897f	0.016911266
226	0xbd84e476	-0.06488888
227	0x3d0b615c	0.034028396
228	0xbb6b0f88	-0.0035867412
229	0xbd2cbdbf	-0.042173143
230	0x3c013258	0.007885538
231	0xbcb2f248	-0.021844044
232	0xbcc75655	-0.024333159
233	0x3d2ea8f8	0.04264161
234	0x3dabf96e	0.08397184
235	0xbd39ad55	-0.045331318
236	0xbc62e4e0	-0.013848513
237	0xbd834b74	-0.06410876
238	0xbd8d06a5	-0.06886033
239	0xbd027f95	-0.031859953
240	0x3d814ab5	0.06313077
241	0x3ca28868	0.019840434
242	0xba20bc11	-0.00061315397
243	0xbd149b77	-0.036281075
244	0xbd7c1dcc	-0.061551854
245	0xbccf51a8	-0.025307491
246	0xbd247f15	-0.040160257
247	0x3d006336	0.031344615
248	0xbd808cdb	-0.06276866
249	0x3da5e9d0	0.08101237
250	0x3da0a9b9	0.07844872
251	0x3d89aaf0	0.06722057
252	0xbc9c9d83	-0.019118076
253	0xbce01c5a	-0.02735727
254	0x3bc80d48	0.006105099
255	0x3da889cc	0.08229408

net.4.weight f4 [41, 256]
0	0x3d88cbd0	0.06679499
1	0xbce3f41d	-0.027826363
2	0x3ca62a18	0.020283744
3	0x3d1ebbc9	0.038753305
4	0xbb4d3126	-0.0031309812
5	0xbccdf43a	-0.02514087
6	0x3c85bdef	0.016325919
7	0x3ccb822f	0.02484235
8	0xbd11974c	-0.03554468
9	0x3e18fd31	0.14940335
10	0x3ced8192	0.028992448
11	0x3dab8422	0.08374812
12	0xbbd61ae7	-0.0065339687
13	0x3cd8a617	0.026446385
14	0x3cf4900b	0.029853841
15	0x3da32796	0.07966535
16	0x3de043ce	0.10950433
17	0x3d36512d	0.04451101
18	0x3d7d43b0	0.06183213
19	0x3caceee4	0.021110006
20	0x3d003d98	0.03130874
21	0x3d19989f	0.037499066
22	0x3df1a5f3	0.117992304
23	0xbd7ec3d5	-0.06219848
24	0x3dac0e00	0.08401108
25	0x3d802b61	0.06258274
26	0xbd39793e	-0.04528164
27	0xbcb1a0f9	-0.021683203
28	0x3d6fa17b	0.05850361
29	0x3cae62ac	0.021287285
30	0x3e107e1e	0.1411061
31	0xbc9bdd93	-0.019026553
32	0x3d25a110	0.040436804
33	0x3e00ffaf	0.12597536
34	0x3d3759c4	0.04476334
35	0x3d0ca8eb	0.03434078
36	0x3b1344d3	0.0022471442
37	0x3e00a0b3	0.12561302
38	0xbb0274d0	-0.0019906051
39	0x3bd23ece	0.0064161783
40	0xbc6aca2d	-0.014330429
41	0x3c8b81be	0.01702964
42	0x3d9b22cc	0.07574996
43	0x3d979f51	0.07403434
44	0x3d1f1675	0.038839776
45	0x3cb3e48e	0.02195957
46	0xbcb58ffd	-0.022163386
47	0x3d3e1daa	0.04641501
48	0xbcc46cc6	-0.023977648
49	0x3d1ff4b9	0.039051745
50	0x3df3062e	0.11866413
51	0x3d4068ab	0.04697482
52	0x3d3a3bdf	0.045467254
53	0x3e0f411d	0.13989682
54	0xbd60b73b	-0.054862242
55	0xbd9f87a4	-0.07789543
56	0x3d60fc28	0.054927975
57	0x3e0b6a4d	0.1361477
58	0x3e256b02	0.16154101
59	0x3c9f12fb	0.01941823
60	0x3e0e1469	0.13874973
61	0x3e1b2691	0.1515143
62	0xbc42a137	-0.011879257
63	0xbd20a1ab	-0.03921668
64	0xbc1bf443	-0.009518686
65	0xbd948f5e	-0.072539076
66	0x3e161022	0.14654592
67	0xbc7df910	-0.015501276
68	0xbd0eea7e	-0.034891598
69	0xbc7b5eb4	-0.015342403
70	0x3bcaa355	0.0061840215
71	0xbb92304c	-0.004461324
72	0x3e0c7d4f	0.13719676
73	0x3d2f3e70	0.042784154
74	0x3ddcdce5	0.1078432
75	0xbd517b03	-0.051142704
76	0xbd1c3d86	-0.03814461
77	0xbd569435	-0.052387435
78	0x3e1d7ed8	0.15380418
79	0xbd4f1b76	-0.0505633
80	0xbba45136	-0.005014564
81	0xbd16715d	-0.036729205
82	0xbd3e5855	-0.04647096
83	0xbcf72770	-0.030170172
84	0x3d814685	0.06312279
85	0x3de77204	0.11301044
86	0x3c8f71c6	0.017510306
87	0xbd2f9743	-0.042868864
88	0xbc895db6	-0.016768318
89	0x3c49f008	0.012325294
90	0x3dfbdbf2	0.122978106
91	0x3d0ddf91	0.034637038
92	0x3ca66b1c	0.020314746
93	0x3d42de0e	0.04757505
94	0x3e0ec9c7	0.1394416
95	0xba4bfa48	-0.000778113
96	0xbcbf55a2	-0.023356263
97	0xbd3b807a	-0.04577682
98	0xbbd7ad6a	-0.006581952
99	0xbc80b8e5	-0.015713165
100	0x3cca5e99	0.02470331
101	0x3cd30adb	0.025762012
102	0xbd2e08ec	-0.042488977
103	0x3d8094e6	0.062784
104	0x3bb780cd	0.005600071
105	0x3dd961c8	0.106143534
106	0x3d6ef5ad	0.058339763
107	0x3c971a4a	0.018445153
108	0xbd443e49	-0.047910962
109	0xbc37c22b	-0.011215727
110	0xbd59f0e8	-0.05320826
111	0x3d76e735	0.06027909
112	0x3ddc2048	0.10748345
113	0x3e19a9a5	0.1500612
114	0xbcac43ac	-0.021028362
115	0xbd87c320	-0.06629014
116	0xbcd3416e	-0.025788035
117	0x3e15654b	0.14589421
118	0x3dd27406	0.10276036
119	0xbd726974	-0.0591826
120	0xbb93a77b	-0.004506049
121	0xbc3f21d2	-0.011665778
122	0x3da9b106	0.08285718
123	0xbcd3db51	-0.025861414
124	0xbc89d64b	-0.016825816
125	0x3c93a72d	0.018024052
126	0x3da32392	0.07965769
127	0x3e07fc55	0.13279851
128	0x3da7bea3	0.08190658
129	0xbd270fba	-0.040786482
130	0x3c563329	0.013073721
131	0x3d06a430	0.032871425
132	0x3e027162	0.12738565
133	0x3d665792	0.056235857
134	0x3dfe58d1	0.12419284
135	0x3d6ca3e5	0.05777349
136	0xbd018702	-0.031622894
137	0x3d71613b	0.058930617
138	0xbbbe2052	-0.0058021927
139	0x3cbe8b47	0.023259772
140	0xbcd69512	-0.02619413
141	0xbd5807d6	-0.052741848
142	0x3da3fb63	0.080069326
143	0x3cdc0927	0.026859833
144	0x3e0e5f1c	0.13903469
145	0x3d1db0ff	0.038498875
146	0xbd54de45	-0.051969785
147	0x3cc40421	0.02392775
148	0x3bb70462	0.0055852393
149	0xbbdebc29	-0.006797333
150	0x3da5d618	0.08097476
151	0x3cc8232c	0.024430834
152	0x3cece018	0.02891545
153	0x3de88946	0.11354308
154	0x3d25c1bf	0.040467974
155	0x3cc4ab21	0.024007382
156	0x3cc8e83c	0.0245248
157	0x3ddf93b4	0.10916844
158	0x3d2aeb83	0.041728508
159	0xbd38d833	-0.04512806
160	0xbd78f395	-0.060779173
161	0xbd420122	-0.04736436
162	0x3e46d40a	0.19416824
163	0xbd530e5a	-0.05152736
164	0x3d9e75c8	0.07737309
165	0x3c3e51f5	0.01161622
166	0x3db74190	0.08948052
167	0x3e20ea95	0.15714486
168	0x3adcb522	0.001683865
169	0xbd0d500c	-0.034500167
170	0xbd787fca	-0.060668744
171	0x3e21c93c	0.15799421
172	0x3ce6edef	0.028189627
173	0x3cb88bcb	0.022527596
174	0x3dbbd050	0.09170592
175	0xbc4a0fdf	-0.0123328855
176	0x3d3cbd60	0.04607904
177	0x3dc2ed61	0.09517933
178	0xbd5dfa2b	-0.054193657
179	0xbc1deedb	-0.009639467
180	0x3cfd3130	0.030907243
181	0x3e0d1c3a	0.13780299
182	0x3cf869da	0.030323911
183	0x3ddbce16	0.10732667
184	0x3e0c2367	0.1368538
185	0x3db33957	0.08751171
186	0x3ccd21d1	0.025040539
187	0x3ceccff7	0.02890776
188	0x3d225855	0.03963502
189	0x3df8f79a	0.12156601
190	0x3dc6729f	0.09689831
191	0x3cc85d34	0.024458505
192	0xbcbef3a0	-0.023309529
193	0x3a8d4dcc	0.0010780632
194	0xbcab47a8	-0.020908192
195	0x3d5ef26f	0.05443042
196	0xbc8c1eb8	-0.017104492
197	0xbc2693a4	-0.010167036
198	0x3e3a5c9a	0.18199387
199	0xbd684122	-0.05670274
200	0x3a7e14dc	0.00096924393
201	0x3d99a7c2	0.075027004
202	0x3ce4f908	0.027950779
203	0x3e1a2f5d	0.1505713
204	0x3dff47fb	0.12464901
205	0x3df06bc0	0.11739302
206	0x3d4a5e6e	0.04940646
207	0xb9e86a6d	-0.00044329782
208	0x3d2b814e	0.04187136
209	0x3dc66028	0.09686309
210	0xbd1eddff	-0.03878593
211	0x3e060bf7	0.13090502
212	0xbd2350f3	-0.03987212
213	0xbd50b36c	-0.05095236
214	0xbcd8a103	-0.026443964
215	0xbc9cf8f7	-0.019161684
216	0x3e2c0887	0.16800128
217	0xbccccb4b	-0.024999281
218	0xbd4704e6	-0.048588656
219	0xbb508c09	-0.0031821749
220	0xbca9c30c	-0.020722888
221	0x3da66221	0.08124185
222	0xbd0538a7	-0.03252473
223	0xbd593d11	-0.053036753
224	0xba089be5	-0.00052112184
225	0x3da21377	0.07913869
226	0x3d528083	0.05139209
227	0x3cde7d24	0.027159281
228	0x3d3b2fdc	0.04569994
229	0xbd6a28b4	-0.057167724
230	0x3d91c72f	0.071180694
231	0xbd6dbac3	-0.058039438
232	0x3d956b8b	0.07295903
233	0x3c95e2f0	0.018296689
234	0x3dd1914c	0.10232791
235	0x3d42394b	0.04741792
236	0x3d402e45	0.046919126
237	0xbc5210cf	-0.01282139
238	0xbc95cbe3	-0.018285697
239	0x3d34fc56	0.04418596
240	0x3b8841f0	0.004158251
241	0x3d8cb839	0.06871075
242	0xbd162f6b	-0.036666315
243	0xbcabeb52	-0.020986233
244	0xbd160e04	-0.03663446
245	0xbd1008aa	-0.035164513
246	0x3d75a815	0.05997475
247	0x3d5f32ca	0.054491796
248	0xbd52bf9f	-0.051452275
249	0x3da5035a	0.0805728
250	0x3d878037	0.06616252
251	0x3d625119	0.055253122
252	0x3c9b14ee	0.018930878
253	0xbd30cad7	-0.043162193
254	0x3d228762	0.039679892
255	0x3df79ae0	0.12090087

net.4.bias f4 [41]
0	0x3dd163a0	0.1022408
1	0x389fabee	7.613735e-05
2	0x3bba5fd5	0.0056876936
3	0x3db5dbf1	0.08879841
4	0x3dd9a319	0.106268115
5	0xbc7a0ea3	-0.015262279
6	0x3d9e57e1	0.07731605
7	0x3c9c00d4	0.019043364
8	0xbc481c1b	-0.012213732
9	0xbc961098	-0.01831846
10	0x3d4466fc	0.047949776
11	0x3d395a6d	0.045252252
12	0x3db95fa7	0.09051447
13	0x3e0e82c0	0.13917065
14	0xbc9fe674	-0.019519068
15	0x3e06d15a	0.13165799
16	0x3d6688c0	0.05628276
17	0x3c160ddf	0.009158581
18	0x3d8be803	0.06831362
19	0xbc4dc67d	-0.01255953
20	0x3cbfae44	0.023398526
21	0x3d0ca775	0.034339387
22	0x3db89140	0.09012079
23	0x3d178d14	0.036999777
24	0x3cf177ab	0.029476007
25	0x3daaa3dd	0.08332036
26	0x3dc1233f	0.09430551
27	0xbd1044e6	-0.035221957
28	0xbcd33043	-0.025779849
29	0x3c6493e1	0.013951273
30	0xbc7e66da	-0.015527451
31	0x3d07eeef	0.03318685
32	0x3ceb3bba	0.028715003
33	0x3df7d369	0.1210087
34	0x3dc60239	0.09668393
35	0xbb8ffbac	-0.0043940153
36	0x3c5994ce	0.013280107
37	0x3dde7809	0.10862739
38	0x3c1b0fa5	0.009464179
39	0x3d186193	0.03720243
40	0x3e034421	0.12818958
